basic/model-basic.pth (torch, 75397 bytes, 27 tensors)

weight f4 [8, 1, 3, 3]
000000 2c 25 ae 3f fa 48 58 bf 46 e8 ba bf ff 5e 3f 3f
       1.3605094 -0.84486353 -1.4602134 0.7475433
000010 7b 08 f6 3e 99 b2 19 bf c3 19 d2 3e bb 58 04 bf
       0.48053345 -0.60038143 0.4103528 -0.5169789
000020 d8 7e 05 bf 4d cb 14 bf 4c d3 22 bf 54 0a e0 3f
       -0.52146673 -0.5812271 -0.63603663 1.7503152
000030 af de d5 3e 37 a3 b0 bf fb 9b d1 be 0b b7 48 3e
       0.41771457 -1.3799809 -0.40939316 0.19601075
000040 fc 75 02 c0 8e a1 92 3f 93 2e 8d 3e ef ff cc 3e
       -2.0384512 1.1455553 0.27574596 0.40039012
000050 20 bd 4c 3f 7d 6a 82 3e 1d ef 77 3d e3 eb 54 be
       0.7997608 0.2547187 0.06053077 -0.20793109
000060 7b 67 62 3e 0d 4a a2 3e 16 4f 1b 3e ea a4 7d 3f
       0.22109787 0.3169712 0.15166888 0.99079764
000070 91 67 47 3e b7 1d 0b 3f e0 a3 82 3f 82 21 6c bf
       0.19473101 0.54342216 1.0206261 -0.9223863
000080 55 98 81 bd 3e d3 03 3f e8 8b d5 bf 37 89 de 3e
       -0.06327883 0.51494205 -1.6683321 0.43464062
000090 f2 55 a7 bf 46 be 2a 3e 40 0f 63 3f e9 e6 ae be
       -1.3073103 0.16674146 0.88695145 -0.34160545
0000a0 9b ed 4b 3f ea 83 b0 3f 19 a7 63 bd 88 6e 2b 3f
       0.7965943 1.3790257 -0.05557928 0.6696553
0000b0 a3 98 cb bf 13 b3 2c bf 7a a7 65 3f 18 9a d0 3c
       -1.5905956 -0.67460746 0.89708674 0.025464103
0000c0 96 3e c0 be 02 6e 8c 3d b8 ca a7 bf 58 d2 ce 3f
       -0.3754775 0.0685692 -1.310874 1.6157942
0000d0 ba 22 b2 3f 10 8d 01 bf b7 6d 8b bf 1d 98 99 3e
       1.3916848 -0.5060587 -1.0892857 0.29998866
0000e0 e0 45 12 bd 38 40 ae bf a3 8e 78 3e fb 49 9b 3f
       -0.03571117 -1.3613348 0.24273162 1.2131952
0000f0 12 2e 8f bf 24 e0 54 3f fc 33 17 3f e3 2d 44 be
       -1.1185935 0.8315451 0.59063697 -0.1915813
000100 8f 44 3e bf 4b d7 a5 be 04 8b f2 be 57 81 42 3e
       -0.7432336 -0.32390818 -0.47371686 0.18994652
000110 35 cf 02 bf e2 84 29 bf 38 e6 1c 3f 6d 6d dd 3e
       -0.5109742 -0.6621839 0.61288786 0.43247548

weight f4 [8]
000000 f3 75 ab 3f b5 ee f2 3f 5b 1c 87 3f e1 42 c4 3f
       1.339537 1.8979098 1.0555528 1.533291
000010 55 6b a7 3f 46 12 bf 3f 8c aa ab 3f 57 91 b7 3f
       1.307963 1.4927452 1.3411422 1.4341229

bias f4 [8]
000000 a6 d5 c7 3d 37 b8 7f be a1 0b bb be 83 d7 38 bf
       0.09757547 -0.24972616 -0.3653231 -0.72203845
000010 29 86 23 be 0e 04 a4 be e5 82 27 bf ed 6f bd 3d
       -0.15969147 -0.32034343 -0.65434104 0.09249864

running_mean f4 [8]
000000 ac 2d 98 be a4 a6 f3 be 9a 8c 33 3f 93 68 a0 3e
       -0.29722345 -0.47588074 0.70136416 0.31329784
000010 90 4b 3d 3e 09 56 b7 3e 61 ff fa bd e7 7d 02 bf
       0.18485856 0.35807827 -0.12255741 -0.5097336

running_var f4 [8]
000000 88 32 23 3d c2 b3 5a 3d 00 93 45 3d 2a 71 13 3d
       0.039843112 0.053394087 0.048235893 0.035996594
000010 18 95 00 3d bc 96 27 3d 70 db 2b 3d 53 b5 18 3d
       0.031392187 0.040915236 0.04195732 0.0372823

weight f4 [8, 8, 3, 3]
000000 a0 f8 88 be 60 75 2c 3f 6d ab 87 3e ab 3c fc bd
       -0.26752186 0.673666 0.26497975 -0.12316259
000010 e7 7d c8 3e e5 a6 3c 3e 19 2e 47 3e 27 85 cd 3d
       0.39158556 0.1842304 0.19451179 0.100351624
000020 5d 4a fd 3e 8d 3b 95 3e 17 a2 2e be a9 41 7b be
       0.49470797 0.29146996 -0.1705402 -0.24536766
000030 ff a7 a6 be 2e 16 83 3e 87 93 3d be 94 9b 10 bf
       -0.32550046 0.2560286 -0.18513308 -0.56487393
000040 f5 b0 69 3e 98 54 28 bf b7 d5 f2 3e 92 d4 f9 3d
       0.2282141 -0.6575408 0.47428676 0.12198748
000050 cd 56 73 be a6 24 52 3e 8f a6 fb 3d 71 60 a3 bd
       -0.2376358 0.20521793 0.12287628 -0.07977379
000060 de dc 8d bd a2 4f 8a 3e 30 04 95 be 88 8d d3 3d
       -0.06926893 0.2701388 -0.29104757 0.10329729
000070 02 d7 0d 3f 6d 5c 12 be aa 28 b1 3e 2b 0f df be
       0.554062 -0.1429307 0.34601337 -0.4356626
000080 ad fc fc 3e 29 8c 00 3f 02 dd aa be 5a fb 90 3c
       0.49411526 0.5021387 -0.3337174 0.017697979
000090 f9 c8 60 3e 0d 27 7a 3e a7 44 4f be 7a 5f e8 be
       0.21951665 0.24428959 -0.20241033 -0.45385343
0000a0 8d c3 e4 3e 7b e1 25 bf 68 54 0d bf d4 d3 ae 3e
       0.44680443 -0.6479718 -0.5520692 0.34145987
0000b0 eb 6f b9 be 86 ab 94 be f1 45 e0 3e d9 2b 3a be
       -0.362182 -0.29037112 0.4380336 -0.18180789
0000c0 66 0c 1a bf 3a 07 ad bc d9 7e 62 3e aa dc 36 be
       -0.6017517 -0.02112161 0.22118701 -0.17857614
0000d0 77 7c 1a 3f c6 10 8c be 46 ed 84 bf 9c 9a 37 3f
       0.6034617 -0.27356547 -1.038491 0.7172029
0000e0 62 fc 6c 3d 70 28 83 be 8f d7 70 3c f3 73 ba bd
       0.05785788 -0.2561679 0.014699831 -0.09104147
0000f0 29 ae 44 bf 4c bf b3 be 12 f4 c5 be 39 f5 b7 be
       -0.7682825 -0.35106885 -0.38662773 -0.35929278
000100 90 d1 7a 3e f4 c1 d3 3e 15 df 62 be 95 8d 63 be
       0.24494004 0.41358912 -0.22155412 -0.22221978
000110 70 bf 7b be 05 4f 20 bf 69 5d d9 3d 16 43 13 be
       -0.24584746 -0.62620574 0.1061352 -0.1438106
000120 a2 f6 de 3d 30 61 57 3e 91 5f 7f 3e dc a0 d8 bd
       0.10886885 0.21033168 0.249388 -0.105775565
000130 18 3d ab be a3 09 3c 3f 2a d2 c6 3e 95 28 41 3f
       -0.33445048 0.73452204 0.38832217 0.7545255
000140 f2 b9 8e bd 43 fe 99 3e 66 12 70 3e 4e 03 36 3d
       -0.0696906 0.300768 0.23444518 0.044436745
000150 2e 73 ab 3d 42 d6 8f 3e 1e 6d 61 3d 4f 7e 15 3f
       0.08371578 0.28093153 0.055035703 0.58395857
000160 7e 68 71 bf a2 6f 29 3f 8e 5d c4 3d 83 60 d5 be
       -0.9430007 0.66185963 0.09588157 -0.41675195
000170 23 a0 79 3d 7c a5 b3 be 77 c4 82 3c b2 f8 9e bd
       0.060943734 -0.35087192 0.015962822 -0.077622786
000180 92 25 07 bf c4 8d 38 be 44 67 6b be 34 11 18 be
       -0.527917 -0.1802283 -0.22988611 -0.14850312
000190 ad 19 b8 bd a9 0f 64 3e 3a d6 d2 3e a1 17 2e be
       -0.08989272 0.22271599 0.41179067 -0.17001201
0001a0 5c 91 61 be e6 40 0b bf 18 16 50 3e 88 71 2e 3c
       -0.22028106 -0.543959 0.20320928 0.010647185
0001b0 00 fc 84 bd 79 bf 27 3c ba 96 0a 3f dd c4 5d be
       -0.06493378 0.010238522 0.5413624 -0.21657129
0001c0 1b c0 94 be 17 ab bd be b2 63 d9 be 3c 41 1f be
       -0.29052815 -0.37044594 -0.42458874 -0.15552229
0001d0 2c 73 c9 3e d5 26 3a 3e 0f 0d 42 bf 25 23 f2 bc
       0.39345682 0.18178876 -0.75801176 -0.029557774
0001e0 e6 23 c4 be 37 0a c0 3e 8b d8 b9 be e6 39 a0 3e
       -0.38308638 0.37507793 -0.36298022 0.31294173
0001f0 e1 a9 1f 3f 13 3c bd be 6e 21 50 3f 0d 48 91 3d
       0.6236859 -0.36959895 0.8130101 0.07093821
000200 c4 8e 73 3d 65 7e 0e bd 43 b4 de be 26 4c 9b be
       0.059462324 -0.034788508 -0.43496904 -0.30331534
000210 e1 f7 04 3f fc 28 fa bd 14 b1 60 3f 7f 94 c7 be
       0.51940733 -0.122148484 0.877702 -0.3898048
000220 31 43 85 be 91 e2 0d bf bf 8a 52 3f f9 09 71 be
       -0.26027825 -0.5542384 0.8224296 -0.2353896
000230 f4 57 61 3e df 94 b4 3e 10 aa 9e 3e 41 f1 94 3e
       0.22006208 0.3526983 0.30989122 0.29090312
000240 18 07 97 3e 08 42 3b 3e 13 b0 32 be c4 8b 37 be
       0.294976 0.18286908 -0.1744998 -0.1792441
000250 6d cd 49 3f 1d f0 65 3e 3f ea 20 3f 40 fb 53 3e
       0.7882908 0.22454877 0.6285743 0.20701313
000260 d1 17 ab be ad fd a6 bd 27 cd 0f 3f 39 ef 44 bf
       -0.33416608 -0.081538536 0.5617241 -0.76927525
000270 10 59 54 bd 29 1c 9c 3e 9c 18 cc be 1e eb 3e 3e
       -0.05184275 0.30490234 -0.39862525 0.18644378
000280 fd 44 08 3f 00 cf 76 bd 15 f8 bc 3e 3c b0 de bb
       0.5323027 -0.060256004 0.36908022 -0.006795911
000290 c0 e9 c3 be ae b1 f4 3c d5 9f 53 be a0 23 04 be
       -0.38264275 0.02986988 -0.2066644 -0.12904215
0002a0 45 de 06 bf 43 48 3e be 09 4d 09 3f b4 de d7 3e
       -0.52682906 -0.18582253 0.5363317 0.42162097
0002b0 ce e1 41 3e 37 c9 fc 3e a8 72 6d 3f f4 a6 7d 3e
       0.18933794 0.49372265 0.92753077 0.24770719
0002c0 8b ad 73 bf fe b0 2a 3e cb 77 e3 be d3 d0 33 3d
       -0.9518668 0.1666908 -0.44427332 0.043900322
0002d0 da db 1a 3e da 67 b0 be 6f bb ad be 73 36 d2 bd
       0.15122929 -0.34454232 -0.33932063 -0.102642916
0002e0 fc bf c1 bd 49 ef 07 bf ac 75 07 bf 5b 68 30 3f
       -0.09460446 -0.53099495 -0.5291393 0.68909234
0002f0 a3 b8 a3 3e 69 48 48 3e 6c f4 97 3e a6 46 ae be
       0.31976804 0.19558872 0.29678667 -0.34038275
000300 19 ed 92 3c 30 c2 2d bf 0a e2 27 3f b7 86 d0 bd
       0.017935323 -0.6787443 0.65579283 -0.10181945
000310 6c 5d fc bd de 3e bf bd 55 0f 20 bf 82 7f 08 bf
       -0.12322506 -0.09338163 -0.62523395 -0.5331956
000320 d1 9a 7d 3e 5e aa a0 be c2 74 93 3e db 25 ca be
       0.24766089 -0.3137998 0.28800017 -0.39482006
000330 4d 72 00 3f 50 d7 dd be d3 1f d3 3e 80 93 0e bf
       0.5017441 -0.43328333 0.41235217 -0.5569382
000340 38 b4 1f bf 2a 20 5b be 0e c5 9e be 08 4c 08 bf
       -0.62384367 -0.21398988 -0.31009716 -0.53241014
000350 00 a2 c7 3d 35 b1 0e 3f 3f 52 06 3e af e3 19 3f
       0.09747696 0.55739146 0.13117312 0.6011304
000360 16 38 6a be d7 17 bd 3e ab 7a e7 3e 69 69 31 be
       -0.22872958 0.3693225 0.45210776 -0.17325367
000370 8e 9f 09 bf 3b 09 4c 3e 9e 16 06 be 43 60 1f be
       -0.53759086 0.19925396 -0.13094565 -0.15564065
000380 52 29 21 3f e1 1d ce 3e 68 0e 97 3e 89 17 bb 3e
       0.62953675 0.4025717 0.2950318 0.36541393
000390 c3 d7 0f 3e f7 87 ca be ba a3 e1 be c3 ab 22 bf
       0.1404715 -0.39556858 -0.44070226 -0.6354334
0003a0 77 6e eb be 24 fc cb be 31 4e 72 bd 67 06 2a bf
       -0.45982715 -0.39840806 -0.0591566 -0.6641602
0003b0 2c 28 94 be c7 c4 c3 bd 58 9c 38 bd f5 6b 9d bd
       -0.289369 -0.09559017 -0.045070976 -0.07686607
0003c0 d4 d3 a7 bd 69 41 99 3c aa 57 d7 bd a1 5f 8f be
       -0.081947 0.018707948 -0.105147675 -0.28002647
0003d0 85 32 c2 3e 25 c8 53 be 7d 35 8d 3e db 39 70 bf
       0.37929168 -0.20681818 0.2757987 -0.9383828
0003e0 16 b6 7b bf 99 39 c8 bd 28 eb 23 3f 10 ce 71 3d
       -0.98324716 -0.09776611 0.64030695 0.059034407
0003f0 33 c2 2f 3e e9 e0 33 3e 88 55 10 bf d2 bc 12 bf
       0.17163925 0.17566265 -0.5638051 -0.57319367

weight f4 [8]
000000 52 e1 94 3f 3b 2f 8a 3f fa 47 b8 3f a9 db df 3f
       1.1631262 1.0795664 1.4396966 1.748891
000010 11 9b ec 3f 15 c0 bd 3f 57 77 a4 3f 9c 03 89 3f
       1.8484823 1.4824244 1.284892 1.0704226

bias f4 [8]
000000 b5 cd dc be 67 e4 48 3e 81 71 ba be 48 87 9e be
       -0.43125692 0.19618379 -0.36414722 -0.30962586
000010 c9 42 c9 bd 3e 35 4f be 8a ae af 3e 44 b6 87 3c
       -0.098271914 -0.20235154 0.3431285 0.016566403

running_mean f4 [8]
000000 53 4f f1 be 2a 12 49 3f c8 f0 77 be 82 11 1a c0
       -0.47130832 0.7854334 -0.24212945 -2.4073186
000010 f4 ef 0c c0 f9 d3 33 c0 89 1f c9 bf e8 21 f2 3d
       -2.2021456 -2.8098128 -1.5712749 0.11822873

running_var f4 [8]
000000 1e 74 b6 40 6c 9e c8 40 20 3b 2f 41 3f 4e 05 41
       5.7016745 6.2693386 10.951935 8.331603
000010 f2 79 92 41 a5 b8 df 40 b4 19 34 41 f7 93 bb 40
       18.309544 6.9912896 11.256275 5.861812

weight f4 [8, 8, 3, 3]
000000 42 1d 29 3e 8f 5a 53 be a8 66 2c 3e 92 8d 03 bd
       0.16515067 -0.20640014 0.16836035 -0.032117434
000010 52 91 c4 3c 6e 54 24 3d 85 ae 37 3e 1b aa eb 3d
       0.023995075 0.04011958 0.17937668 0.115070544
000020 16 06 b6 3e 8e 74 f5 3e a2 8a 10 3f 00 b1 91 3d
       0.35551518 0.47940487 0.56461537 0.07113838
000030 a1 a0 6b be 8e 80 bd 3d 18 a9 28 3f 65 53 c8 be
       -0.23010494 0.092530355 0.65883017 -0.39126125
000040 bd 5e 89 3e 9b d4 fb 3e f6 e7 06 3f 1f ae 4d bf
       0.26830092 0.49185643 0.52697694 -0.8034381
000050 44 50 03 be 21 83 b2 bf 54 42 09 3f 82 46 81 3c
       -0.12823588 -1.3946267 0.53616834 0.015780691
000060 e6 b1 64 3f 1a c1 c8 bd b9 89 1e 3e 15 35 4a 3d
       0.8933395 -0.09802456 0.15482225 0.04936703
000070 10 73 90 3e 75 8d d8 bd 3d 31 25 be 80 bb 0c 3f
       0.28212786 -0.10573856 -0.16132064 0.549736
000080 83 01 3a 3f af 79 b3 be a7 86 69 3d 21 01 d1 3e
       0.72658557 -0.35053775 0.05701318 0.40821174
000090 1a 53 11 3f 4b 75 7b be a0 f2 b8 be 29 f3 a9 be
       0.5676743 -0.24556462 -0.36122608 -0.3319333
0000a0 43 f1 a0 3e 91 f9 a4 3e f6 99 8e 3d 30 3c 0a bf
       0.31434068 0.32221654 0.069629595 -0.5399809
0000b0 43 d4 f3 3e fc b5 40 be f8 35 32 3e 64 cf 0d bf
       0.4762288 -0.18819422 0.174034 -0.5539458
0000c0 12 21 9c 3e b2 4b f9 bc d7 fa d2 3e a7 9d 10 3e
       0.3049398 -0.030431602 0.41207 0.1412264
0000d0 f9 8c 9c 3e 42 72 6d be b4 c0 6a 3e 01 46 26 bf
       0.30576304 -0.23188117 0.22925073 -0.6495057
0000e0 c2 26 84 be 3b 87 b5 be ca 4e 6e 3e 06 08 9e 3e
       -0.2581082 -0.35454735 0.23272243 0.30865496
0000f0 08 42 e3 be 2d de cb be 22 c1 26 bf d8 b2 9b be
       -0.44386315 -0.39817944 -0.6513845 -0.30409884
000100 42 7f 01 3e e9 e8 5a bd 59 63 89 be 5c 73 2e be
       0.12646201 -0.053444777 -0.2683361 -0.17036194
000110 0f 23 57 be 81 46 e1 3e 19 1d a5 be 70 bf 91 3e
       -0.21009468 0.43999103 -0.32248762 0.28466368
000120 72 d7 2a bf 78 b5 cf be 19 9b 5c be 29 9e 0b 3e
       -0.66734993 -0.40568137 -0.2154354 0.13634552
000130 07 36 e2 be e3 98 78 3d 68 d8 f8 3c 3d a6 f8 be
       -0.44181845 0.06069268 0.030376628 -0.4856433
000140 b6 43 a1 bc e7 a9 1c be ab cb 91 3e b7 e2 90 3d
       -0.019685607 -0.15299188 0.284757 0.070744924
000150 b9 67 87 3d ed 0f ae 3e 71 5c b4 be 82 3b 73 be
       0.066115804 0.33996525 -0.35226777 -0.23753169
000160 bf f6 c4 3e ff 67 b1 3d 4f 59 3e 3c 2d 47 13 bd
       0.38469502 0.08662414 0.0116179725 -0.03595655
000170 fb 8e 94 3e 9b 76 af be 00 5b ba 3e 88 38 8c bf
       0.29015335 -0.34270176 0.36397552 -1.0954752
000180 e7 38 24 bf 78 59 b6 3e c5 0c ce be 1e 6d 00 3f
       -0.64149326 0.35615134 -0.40244117 0.501665
000190 76 2a 55 3d 72 a4 ef be 29 02 30 bf e8 3c e7 bd
       0.052042447 -0.4680515 -0.68753296 -0.11290914
0001a0 ba e8 ad bd dc fd 05 bf 8a 78 dc 3e 63 01 27 3e
       -0.08491655 -0.52340484 0.43060714 0.16309123
0001b0 bb 96 c2 bc dd 0f 97 be 69 1f d8 3e 88 6c c3 3d
       -0.023753515 -0.2950429 0.42211464 0.09542185
0001c0 db 76 a5 be d7 40 df be 30 1b 7d bd 63 fc 1d 3e
       -0.32317242 -0.43604156 -0.061793506 0.15428309
0001d0 69 eb 0c bf a3 5f ea be b0 fa c3 3e a9 54 1e be
       -0.5504671 -0.4577609 0.38277197 -0.15461983
0001e0 e2 38 ea 3d 6a 30 88 3d 39 7e bc 3c 25 1b 31 3e
       0.11436631 0.06649859 0.023009406 0.17295511
0001f0 99 6f 9a 3d 4b a6 f0 be 18 84 a5 3e 2e 01 43 3f
       0.07540817 -0.4700187 0.32327342 0.76173675
000200 87 a1 50 bd fa e8 a8 bf c9 12 b5 be f3 83 c2 3d
       -0.050935294 -1.3196099 -0.35365894 0.094978236
000210 c1 b1 63 3e 8d 3f ae 3e a2 a0 3e 3f 9c 37 f4 bd
       0.22235776 0.3403286 0.74463856 -0.11924669
000220 b4 b6 cb bd 0a 83 de 3e 3c 38 20 3f 9d 06 88 bd
       -0.09946957 0.4345935 0.62585807 -0.066418864
000230 9d 9f 56 be fa 47 1e 3f 9d 87 b7 3d f6 2d c2 bc
       -0.20959325 0.6182858 0.08961413 -0.023703557
000240 ca df 30 3d 0c 79 84 3e 3e 1b 46 3d f9 46 20 3f
       0.043182172 0.258736 0.048365824 0.62608296
000250 6c 5c 96 be da d5 88 be 4f 7e 85 bf 08 bd f0 bd
       -0.29367387 -0.26725656 -1.0429171 -0.11754805
000260 18 54 24 be eb ac 41 3e 59 35 89 be a2 1b d1 3e
       -0.16047704 0.18913619 -0.26798514 0.40841395
000270 c8 34 cb bd c0 fa 00 bf f6 2a 4e 3e cf 00 aa 3e
       -0.099221766 -0.50382614 0.20133576 0.33203742
000280 77 df 17 3d bc 86 18 be 65 cb e9 3e 40 3f 5e bf
       0.037078347 -0.14895147 0.4566299 -0.8681526
000290 8a f1 74 3e 38 cb ee be 02 70 2b bf 9a 88 ab 3e
       0.23920265 -0.4663942 -0.66967785 0.33502656
0002a0 87 ea b6 be 64 af ea be 8a 78 1e 3d 50 1c ba be
       -0.35725805 -0.45836937 0.038689174 -0.36349726
0002b0 00 59 1e 3c 94 40 80 be be 12 8e bd a6 56 99 3e
       0.009664774 -0.2504927 -0.069371685 0.2994892
0002c0 b1 ad b2 3c b0 0d 15 3f 96 fc 80 3d e0 a1 93 bd
       0.021811338 0.5822401 0.06298177 -0.072086096
0002d0 be d2 de 3e b8 1c 85 bf d3 ed d9 be d0 0e 76 bb
       0.4352016 -1.0399389 -0.42564258 -0.003754545
0002e0 07 12 a8 3e 8a 45 f3 3d 0b 69 78 bf 23 8e 83 3f
       0.32826254 0.11878498 -0.9703528 1.0277752
0002f0 8a e3 44 3e 53 3b 5d 3e 90 c4 1a 3f 49 73 a3 be
       0.19227424 0.21604662 0.6045618 -0.31923893
000300 39 72 00 3f f7 38 68 be f3 97 5b be e9 7d 25 bd
       0.5017429 -0.2267798 -0.21444683 -0.04040328
000310 fc be 19 3f f3 86 53 bf f4 c5 a6 be 13 29 97 3d
       0.60057044 -0.8262779 -0.325729 0.07380881
000320 ba d1 a8 be 7d 61 89 be c7 7a 9b be 06 1e 31 be
       -0.3297251 -0.2683219 -0.3036711 -0.1729661
000330 2f 53 68 be 6f 35 ed be 64 a0 08 bf ac d6 8e be
       -0.22687982 -0.4632983 -0.53369737 -0.27898157
000340 3d 54 09 3e 5b 1f 0f 3f c0 37 83 3e 3b 29 a5 3e
       0.1341104 0.5590722 0.2562847 0.3225802
000350 bd b5 ef bd 87 2a df 3e 7f f7 6c bd f2 c4 cd 3b
       -0.11704586 0.43587133 -0.05785322 0.006279581
000360 3f 6b d9 3e a7 1b 8b 3e 0a 00 20 3e dc 9d f9 bb
       0.42464635 0.27169535 0.15625015 -0.0076176953
000370 4b d4 9a be 47 45 87 bd bc ab ad be 47 67 34 be
       -0.30240092 -0.066050105 -0.33920085 -0.17617522
000380 41 3a 4c 3e b7 f8 02 3f cd 8f 69 3d cf b7 11 3e
       0.19944097 0.5116076 0.057021905 0.14230274
000390 8c 99 c8 be 2d a6 5a be 8f 29 37 bf 92 ff 11 3e
       -0.39179647 -0.21352454 -0.7154779 0.14257649
0003a0 e0 d0 49 bf c9 3f a2 3e 81 b8 6b 3e b6 70 95 be
       -0.7883434 0.3168929 0.23019601 -0.29187554
0003b0 90 9b 41 3f 8a 0a 39 be 57 54 1c bd 7f 90 60 3e
       0.75627995 -0.18070427 -0.03816637 0.21930121
0003c0 7f f5 97 be fd 21 9e 3e d0 fe a7 3d c5 8c d5 3e
       -0.29679486 0.30885306 0.082028985 0.4170896
0003d0 86 b2 06 bf 8f c7 3d be e7 f9 1f 3e a3 75 56 3e
       -0.52616155 -0.18533157 0.15622674 0.20943312
0003e0 ed 0e 3d 3f 96 b2 1c bf 35 16 0d be ae 17 22 3f
       0.738509 -0.6121 -0.13778003 0.6331738
0003f0 cc f2 82 bf 28 15 0f 3e e3 09 bd 3e de 4c 4e be
       -1.0230346 0.13972914 0.36921605 -0.2014651

weight f4 [8]
000000 c3 bb 90 3f 3a bc 9e 3f 1f 9e aa 3f ca 93 bb 3f
       1.13073 1.2401192 1.3329505 1.4654477
000010 e3 a8 be 3f 9a 8b 8a 3f 2a 16 bb 3f 21 61 b8 3f
       1.489529 1.0823853 1.4616139 1.4404641

bias f4 [8]
000000 eb a6 ac be 8e a3 76 be 94 bc 62 bf 3f aa 3b bf
       -0.33721098 -0.24085829 -0.88569 -0.7330665
000010 06 29 f9 be 7a 4d 4c 3e 08 8c fb be 98 6e 8b bf
       -0.4866411 0.1995143 -0.49130273 -1.0893126

running_mean f4 [8]
000000 a3 32 11 3f 28 37 66 bf a2 29 27 c0 db 77 14 40
       0.5671789 -0.8992791 -2.611916 2.3198154
000010 ec 1d f7 bf 30 3b 80 c0 2f d9 45 bf 6b db de 3e
       -1.9306006 -4.007225 -0.7728452 0.43526778

running_var f4 [8]
000000 f1 6b fd 40 71 41 bd 40 d5 d0 9c 40 b2 71 fe 40
       7.9194264 5.9142385 4.900492 7.951379
000010 2c a6 1a 41 ff ce 16 41 ed 84 b9 40 48 1d d9 40
       9.665569 9.425536 5.7974763 6.7848244

weight f4 [16, 8, 3, 3]
000000 f1 c3 66 3e 90 14 2a 3e 83 ee 96 be 3b 21 7d be
       0.22535683 0.16609406 -0.29478845 -0.24719708
000010 72 aa cc be 28 59 07 bf 4d ab 94 be df 28 51 3e
       -0.3997379 -0.52870417 -0.29036942 0.20425747
000020 0e 23 5a 3e 9d 3b a6 bc a3 7f 21 3e 66 3e 41 3c
       0.21302435 -0.020292098 0.15771346 0.011794662
000030 a2 06 16 3e 14 74 0b bd 08 15 9d be 22 7e 85 3d
       0.14650968 -0.034046248 -0.30680108 0.065181985
000040 6a b8 16 3f 7d 7e 8a bd 49 3b a6 3e 9e 1e 43 be
       0.58875144 -0.06762407 0.32467106 -0.19054648
000050 7b 30 c0 3d 96 ad 84 be d6 8b ab be a1 c6 ab 3e
       0.09384247 -0.25913686 -0.33505124 0.3354998
000060 1e a9 8a bd 6d 90 ae bd 55 1d 18 be 53 73 0c bd
       -0.06770538 -0.08523641 -0.1485494 -0.03428967
000070 eb 7a 04 3e b8 99 e7 bd f6 d2 0a 3f 74 b5 45 be
       0.12937514 -0.113086164 0.5422815 -0.193075
000080 2a 45 00 bf c3 57 74 3e 6e 54 d9 3e 61 a6 89 3e
       -0.50105536 0.23861603 0.42447227 0.2688475
000090 1d 69 37 be 0c 1d 20 3e 62 cf f0 3d 82 63 e7 3d
       -0.17911191 0.1563608 0.11758305 0.112982765
0000a0 b5 a4 19 be 11 da 06 be bd ca 9a 3e 55 ce 88 be
       -0.15004237 -0.13169123 0.30232802 -0.2671992
0000b0 c3 c9 cf bd e1 6f 54 3e 97 b7 83 3a 9c aa 8f be
       -0.10145905 0.20745803 0.0010049221 -0.28059852
0000c0 48 79 ff bd 67 73 e2 3e c6 ca 4c 3e 0a e6 48 3e
       -0.124743044 0.4422867 0.19999227 0.19619003
0000d0 96 bf 1a be d9 a8 ae bd 43 14 0b be ce d3 c4 3e
       -0.15112147 -0.08528299 -0.13581948 0.38442844
0000e0 85 12 83 be da a9 ad bd 46 99 12 bd 3c 9d b1 3d
       -0.25600067 -0.08479662 -0.035790704 0.08672568
0000f0 7a cd 3b 3e 02 8b 9f 3e c9 f4 ff 3c be 7a 01 3e
       0.18340102 0.31160742 0.031244652 0.12644479
000100 59 3f 5f 3e a9 61 d1 3e ac 98 4c 3e c3 1d 98 be
       0.21801509 0.4089482 0.19980115 -0.29710206
000110 a3 ca 12 3e f0 f2 20 3d b4 6b cf be 45 c3 9b be
       0.14335112 0.039294183 -0.40511858 -0.30422416
000120 64 e2 ec 3e 7a 6f 74 3e 25 df 0e bf a4 93 04 3e
       0.46266472 0.2387065 -0.5580924 0.12946945
000130 e5 7d 11 bf ed d1 a9 3e b9 8c 39 3e 33 7b af be
       -0.56832725 0.33167973 0.18120088 -0.3427368
000140 60 b0 d6 bc ca f0 c6 be 87 82 a0 3e e9 92 17 3d
       -0.026207149 -0.38855582 0.31349584 0.03700534
000150 74 48 8b 3e 56 32 03 bf 4b 85 e8 be af 8f 09 bb
       0.27203715 -0.5124868 -0.45414194 -0.0020990183
000160 1c 74 0a 3e de 6e 21 bd 28 b7 10 3e 78 b8 aa 3e
       0.13520855 -0.03941237 0.14132369 0.33343863
000170 28 31 8c be ba ee 0e 3f fa 7e 86 3e 1a 32 81 bb
       -0.27381253 0.5583302 0.2626875 -0.00394274
000180 3b 5d d2 bd 47 79 8f bd 7c 84 86 3e 49 f6 d4 be
       -0.102716886 -0.07005554 0.26272953 -0.4159415
000190 7d 08 02 3e 4a bb 06 be 09 20 15 bf 33 40 ed bc
       0.1269855 -0.13157383 -0.58252007 -0.028961277
0001a0 3b f6 67 3d 3b 90 b6 be aa 38 d3 be c6 33 ae be
       0.056631308 -0.35656914 -0.4125417 -0.34023875
0001b0 31 7c 6b be 2a d1 a5 be ac ba 26 3e 85 ed 5d 3d
       -0.22996594 -0.32386142 0.16282147 0.054181594
0001c0 8b 85 92 3d e7 c0 71 bf 35 64 6c 3e 6f 93 c3 3e
       0.071543775 -0.9443497 0.23085101 0.3819842
0001d0 92 5e f9 be b8 9f 59 3e d2 c0 b5 3e 70 e9 b8 3e
       -0.48704964 0.21252334 0.35498673 0.361156
0001e0 07 cb 0a 3d db 73 1d bf 3b 1a 81 be 66 cb 16 bf
       0.03388503 -0.61504906 -0.25215325 -0.5890411
0001f0 a6 25 b6 3d db 4b 44 3f c3 6d 60 3e 8d 50 c6 3e
       0.088938996 0.76678246 0.21916871 0.3873333
000200 fc 3c 16 3e 4c 04 eb be 5e e7 08 3d 50 c5 03 bf
       0.14671701 -0.45901716 0.033423774 -0.5147295
000210 66 33 a7 3e 57 1d c3 be b4 51 8c bc cf 55 4b be
       0.326564 -0.38108322 -0.017128803 -0.19856952
000220 3e 5e 83 be 9a 5a 99 be fd 36 8a be 8c 85 e3 bd
       -0.2565784 -0.29951936 -0.26995078 -0.111094564
000230 a0 fd 15 bf c0 39 43 3e 6b a5 a5 be 3e d8 26 bd
       -0.58590126 0.19064999 -0.32352766 -0.04073357
000240 a6 96 9f be ea e4 ac be ee 7a 20 bf 61 95 9d 3e
       -0.31169623 -0.33768398 -0.62687576 0.3077803
000250 60 92 d0 bd 36 5b ab be 77 dd b7 bd bc 5c 18 3e
       -0.10184169 -0.33468026 -0.08977788 0.14879125
000260 3c 7e 05 3d 74 9f 54 3e 25 de ae be 10 36 70 be
       0.03259109 0.20763952 -0.34153858 -0.23458123
000270 ea 0a 8b be 4d 0b 10 be 3c 94 aa bd f9 34 c0 3d
       -0.27156764 -0.14066811 -0.08329055 0.09385104
000280 ae fa 48 bd 8e 0d 92 be 9d 5e c2 3c 92 7e 31 3d
       -0.04906719 -0.28525966 0.023726756 0.043333597
000290 d8 9a 1b be 15 97 9d 3e 1c 4e d3 be 39 53 06 bf
       -0.15195787 0.3077933 -0.4127053 -0.5247074
0002a0 91 f1 9c be a2 b2 6a 3d a1 ef 10 be 39 0d e5 3d
       -0.3065305 0.057299264 -0.14153911 0.11184163
0002b0 1c 54 17 3e 3f a2 b2 be 09 8f 85 be 19 07 9a 3e
       0.14778179 -0.3488941 -0.2608569 0.3008354
0002c0 9a aa b2 be 9a 7f c5 bc 58 b9 99 bc ea 2e 4e bb
       -0.34895784 -0.024108697 -0.018765137 -0.0031461068
0002d0 8a fe 89 bd 4a f0 71 bc 81 3e e4 be 05 c7 c0 3e
       -0.067380026 -0.014766762 -0.44578937 0.3765184
0002e0 a6 9e 9c be 5e 18 7a 3c b6 42 1f bf f2 71 cd 3d
       -0.3058979 0.015264599 -0.6221117 0.10031499
0002f0 32 81 7c 3d a9 9f 96 bc 3e a4 57 3d 34 9d 10 3e
       0.061646648 -0.018386679 0.052646868 0.14122468
000300 74 f9 1c bf e8 03 31 3e ad 78 09 be d0 10 26 3c
       -0.61318135 0.17286646 -0.1342494 0.010135844
000310 0c 6d 9b be 07 79 0f 3e 1f 24 47 be 4c a8 01 be
       -0.30356634 0.14011012 -0.19447373 -0.12661856
000320 72 71 a4 bc 2c fc 69 3e d6 a3 79 be 59 54 75 bd
       -0.020073626 0.22850102 -0.24378905 -0.059894893
000330 8a 40 d6 3d 10 69 76 bd a4 7c 2d be 0f d7 30 be
       0.104615286 -0.06015879 -0.16942078 -0.17269538
000340 95 77 7c be 74 84 40 3e 01 24 ca 3d a7 6e a3 be
       -0.24654992 0.18800527 0.098701485 -0.3192036
000350 28 8e c4 3d 8e 76 d6 3c 20 d1 09 3f 78 46 17 3f
       0.09597427 0.026179578 0.53834724 0.590919
000360 60 e8 94 be f1 51 5e 3e 38 ee ac 3a 98 05 82 3e
       -0.29083538 0.21710946 0.0013193553 0.25394893
000370 94 ff ef be bb 1b 8c be a1 da 4f 3e fc 3e 99 3d
       -0.46874678 -0.27364907 0.20298244 0.074827164
000380 0a d0 05 bf e6 0c d8 3e bd 47 64 3e c3 d9 b0 3d
       -0.5227057 0.4219734 0.22292991 0.08635285
000390 9b f9 3a be 76 d0 dd 3d 01 9e b2 be ee 4b e5 3d
       -0.1825928 0.108307764 -0.34886172 0.11196123
0003a0 a5 0f 2c 3e 8b 0b 8e be 74 66 dc bd 0f 3f 16 3f
       0.16802843 -0.27743182 -0.10761729 0.5868997
0003b0 3d 63 4a be 3e 30 1d 3d a7 b0 ba bc 5e e4 5c be
       -0.19764419 0.038376085 -0.022789313 -0.2157149
0003c0 2d 7e 8c be 82 1b b5 3e 3e 01 f8 3d e7 92 a2 3d
       -0.27440014 0.3537255 0.12109612 0.07938176
0003d0 ae 04 c2 3e 21 85 84 3e c9 af d6 3e 48 16 1a 3f
       0.37894195 0.2588282 0.41930988 0.6019025
0003e0 c2 d5 33 be cd 68 27 be 4e 81 af be d6 b9 d3 be
       -0.17562011 -0.16348572 -0.3427834 -0.4135272
0003f0 e6 9f 65 be ba f1 d2 3e 93 2a b1 bc 3d 49 0b bd
       -0.22424278 0.41200048 -0.021626746 -0.034005392

weight f4 [16]
000000 ed 57 ce 3f 51 87 00 40 5c d0 e7 3f bd cc fa 3f
       1.6120583 2.008259 1.8110461 1.9593731
000010 3d ce d0 3f 04 51 d8 3f 8f 51 ff 3f aa 2f 0a 40
       1.6312939 1.6899724 1.9946765 2.1591592
000020 62 c9 40 40 2e f2 33 40 d1 a4 3d 40 17 c6 20 40
       3.0122914 2.8116565 2.9631846 2.5120904
000030 ac 72 2b 40 85 70 18 40 ba 65 33 40 22 d8 2d 40
       2.678874 2.3818676 2.803084 2.7163167

bias f4 [16]
000000 0d ab c2 bd da 44 32 bd 8e 8c 9f bb 2c 57 c0 bc
       -0.095052816 -0.043522693 -0.0048690503 -0.023479067
000010 09 d9 1d 3d a1 a6 ab be 34 26 66 3e 9a 6e a2 3e
       0.03853706 -0.33525565 0.22475511 0.31725007
000020 32 d3 8a 3e 7a 5c 82 3e 1c ae ea 3e ae c0 d3 3e
       0.27114254 0.2546118 0.4583596 0.4135794
000030 66 f8 16 3f f0 a8 40 3e bb fd a4 3e 75 ec 94 3e
       0.58972776 0.18814445 0.3222483 0.29086652

running_mean f4 [16]
000000 c1 bc df 3e 07 ac ac bf ca 8d ed bf 7a 3a 3f bf
       0.43698695 -1.3489999 -1.8558896 -0.74698603
000010 5e f5 a3 bf 18 0a 82 bf 54 c9 b9 bf 15 93 f4 bf
       -1.2809255 -1.015933 -1.4514565 -1.9107386
000020 11 7a 35 be 13 e3 f6 be 66 ee a0 bf 49 20 3a 3e
       -0.17722346 -0.4822012 -1.2572753 0.18176378
000030 a2 02 6b bf cf 30 ac 3e 34 af 34 bf 30 68 88 bf
       -0.9180089 0.33630988 -0.7057984 -1.0656796

running_var f4 [16]
000000 75 63 e7 3f 94 7a 64 40 4e fd b8 3f d4 0c 70 40
       1.8077227 3.5699816 1.4452302 3.750783
000010 b4 27 f4 3f c6 78 ff 3f c6 71 11 40 5f 5b 39 40
       1.9074616 1.9958732 2.2725692 2.8962018
000020 23 59 21 40 22 0c 0d 40 b9 a1 07 40 4f 9a b2 3f
       2.5210655 2.2038655 2.1192458 1.3953341
000030 e9 77 a0 3f 9f 66 4a 3f f8 23 e1 3f a5 c3 c5 3f
       1.2536594 0.7906284 1.7589102 1.5450331

weight f4 [64, 96]
000000 cc 8c 52 bd 6c 99 fd bc 96 34 d0 bd ec 76 49 bd
       -0.051403806 -0.030956946 -0.1016628 -0.04918568
000010 b5 03 27 3d 9b 82 38 3d c1 3b ee 3b 83 d2 46 3d
       0.04077502 0.04504643 0.007270307 0.048540603
000020 ad df eb 3c 5e a8 96 3d f3 33 d4 bd 9f 7b d4 bd
       0.02879318 0.07356332 -0.10361471 -0.10375141
000030 39 12 c1 3d 23 96 01 be cf 22 58 be 46 20 1c be
       0.09427304 -0.12654929 -0.21107028 -0.15246686
000040 0d 77 21 3e d7 1a 88 3c 13 95 22 3e 9a da 2a 3e
       0.1576807 0.01661436 0.1587718 0.16684952
000050 71 75 12 3d 9c 90 ee 3d 58 7f a5 3d 60 09 0f 3e
       0.035756532 0.11648676 0.080809295 0.1396842
000060 67 4f 42 3c f7 95 95 bd 67 40 f0 bc 81 13 02 bc
       0.011859751 -0.07303994 -0.029327584 -0.00793922
000070 b8 f1 05 be d6 36 5e bd f9 f2 04 3e 6f d1 4e 3e
       -0.1308049 -0.054251514 0.12983312 0.2019708
000080 28 1b 32 3e 2b a0 45 3d cd 5f c8 3d 46 4e 53 3d
       0.17393172 0.04824845 0.097838975 0.05158832
000090 f9 3e c4 3d 36 53 92 3c ca 17 47 be 79 bc 3e bd
       0.095823236 0.017861944 -0.19442669 -0.04656646
0000a0 9a ed 9f be 1c 2f 81 bd df 88 44 3d 42 e2 05 3e
       -0.31235963 -0.063078135 0.047982093 0.13074592
0000b0 4d 11 a3 bd 84 94 ca 3c 00 53 92 bd 98 49 96 bc
       -0.07962284 0.02472902 -0.07144737 -0.01834564
0000c0 15 18 92 3d 59 ec c5 3b 74 38 e0 3c 30 97 88 bd
       0.071334995 0.0060401377 0.027370669 -0.06669462
0000d0 f3 36 a4 bd 2e d9 a4 bc 00 e1 6b 3d 65 e3 6a 3d
       -0.08018293 -0.02012309 0.057587624 0.057345767
0000e0 74 08 12 3e c4 4e fa 3d 17 d4 f8 bb 90 3b 7b bc
       0.14261037 0.122220546 -0.0075936425 -0.015334025
0000f0 45 9e a2 3d cf ab fe bd 3b 60 a1 bd c8 09 b7 3d
       0.07940344 -0.12435114 -0.07879683 0.089374125
000100 e6 af c1 bd 35 7d 35 bd f8 ac de bb e8 3f 7f bd
       -0.09457378 -0.04430886 -0.006795522 -0.062316805
000110 50 c4 ca 3c b4 7d 00 3d e8 34 1b bd f9 03 8a bc
       0.024751812 0.03136988 -0.037892252 -0.016847597
000120 2f 87 e3 3d 44 19 ee bd ca e6 39 3d e5 4c c2 bd
       0.111097686 -0.11625913 0.045386113 -0.09487323
000130 1c 1d bd be 17 43 06 3b e5 d4 08 3d ed 41 5b 3d
       -0.3693627 0.0020486766 0.033406157 0.05352967
000140 00 ed 2e bb 85 62 01 3d 99 1d ce 3d fb a5 13 3e
       -0.0026691556 0.031588096 0.10064239 0.14418785
000150 13 f8 54 3e e9 6e cc 3d d0 67 e2 3d ee b6 4a 3e
       0.20797758 0.09982092 0.11054957 0.19796345
000160 c4 aa 34 3e 31 e6 3a bd 77 8d 79 3d 3a 57 46 3d
       0.17643267 -0.045629684 0.060925927 0.04842303
000170 3e 3d bc 3d f4 39 fa bc 71 c0 c1 3d 1a c0 82 bd
       0.091913685 -0.030545212 0.094605334 -0.06384297
000180 d4 f6 3a bd 4b 06 24 3d df a3 26 3b 43 98 98 bd
       -0.04564555 0.040045064 0.0025427265 -0.074509166
000190 6e 2f af 3d c1 b8 06 bd 8d 10 1a bc 0c b8 5e bd
       0.08553968 -0.03289104 -0.00940336 -0.05437474
0001a0 ce 01 85 3d 3a d0 cd bd 78 92 82 3d ca 16 69 bd
       0.06494485 -0.10049482 0.06375593 -0.0569065
0001b0 c3 dd 5a 3d 6e 33 3f bd 8a 18 c0 bc 2a cd b1 bc
       0.053434145 -0.046679907 -0.023449201 -0.021704275
0001c0 5a c6 91 bd db 43 df bc 67 1e ba 3d 6c 5e 85 3c
       -0.07117911 -0.027254036 0.0908783 0.016280375
0001d0 fb af ca bc 39 c5 17 bd 59 ef de 3d 7a ae 89 3d
       -0.024742117 -0.03705332 0.10885496 0.06722732
0001e0 c9 c3 c3 3c fd d4 f0 bd 3c b2 ff 3c 60 35 a3 bd
       0.023897069 -0.11759374 0.031212918 -0.07969165
0001f0 8b 7f b1 bd 62 31 8d 3d 54 cb 65 bd f2 3f a6 bd
       -0.08666905 0.06894185 -0.056102112 -0.08117665
000200 cd d5 af bd f9 73 ad 3d 1a 63 8d bd a9 6d 44 bd
       -0.08585701 0.08469386 -0.06903668 -0.047956143
000210 3e a3 25 bd a5 3f 8c 3d 5c d3 8f 3c 22 53 a3 bd
       -0.040438883 0.06848077 0.017556839 -0.07974841
000220 ac 1c b3 3d 5d 18 82 bc 72 f5 88 3d da cf 56 3c
       0.08745703 -0.015880758 0.0668744 0.013111079
000230 8b 9e 47 bd cc a6 87 3d 0d 04 0c 3d e1 59 44 3d
       -0.048735183 0.06623611 0.03418355 0.047937278
000240 67 26 c8 3d 41 ca ca bd 52 4c ca bd e9 d2 55 3a
       0.0977295 -0.09901858 -0.09877838 0.0008156733
000250 af ed 02 be 43 11 74 3d 60 79 12 3d 38 ad 17 3d
       -0.12785982 0.059586775 0.035760283 0.03703043
000260 9d fd b8 bc 7f e1 8a 3d 7a 4e d0 3d 37 f5 80 bd
       -0.02258187 0.06781291 0.10171218 -0.06296771
000270 9f e6 4e bd d4 1d 33 bd 24 e6 71 bd 10 a6 ba bc
       -0.050512906 -0.04372962 -0.05905737 -0.022784263
000280 ff fa d9 bd 66 ab 32 3c 5b ba 7a 3d 72 e2 11 bb
       -0.10643577 0.010905122 0.06121288 -0.0022260216
000290 73 9b e0 3d e9 2f 93 3c 66 47 f7 bc a8 a3 b5 3b
       0.109671496 0.017967181 -0.030185413 0.005543191
0002a0 d1 2b 19 3d 9c 97 2f bd 26 57 3e 3d 39 a9 a6 3d
       0.037395302 -0.042869195 0.04646983 0.081377454
0002b0 e8 b5 92 3d d8 07 6e bd 6f 37 c3 3c 16 b4 24 3b
       0.07163602 -0.05811295 0.023830144 0.0025131754
0002c0 da 09 95 3d 7f 36 e4 bd 77 31 86 3d 3c 95 d2 3d
       0.0727727 -0.11143207 0.065524034 0.102823704
0002d0 d7 da fe bc 0a e8 82 3d 50 76 a7 3c b9 86 66 3c
       -0.03111021 0.06391914 0.020442158 0.014070206
0002e0 c3 8a 16 3d 6f 1f ac bc 7a ea 0d bc db c2 21 3d
       0.036753427 -0.021011082 -0.008661861 0.03949247
0002f0 f7 01 c3 3d fb 6f 06 3d 6e bf cd bd 5e bb 12 3d
       0.09521859 0.032821637 -0.10046278 0.03582322
000300 fd 32 ad 3d 1e 2b f8 bb 87 78 df bd b8 fa 22 3b
       0.08456991 -0.0075734993 -0.10911661 0.0024868678
000310 05 cb 46 3d ea b7 e6 3d f9 a1 2e 3d c4 d7 b0 bc
       0.04853346 0.112655476 0.042634938 -0.02158726
000320 89 14 5b bd ff cb 78 3d b8 82 08 bd 82 19 7d bd
       -0.05348638 0.06074142 -0.033327788 -0.061791904
000330 d3 42 59 bd 73 cb a5 bd 41 af 1c be af bf 30 be
       -0.053042244 -0.080954455 -0.15301229 -0.17260621
000340 fc 07 57 3d 4f cf 83 3c d6 ec 3b bc a3 cc ff 3c
       0.05249785 0.016090063 -0.01147004 0.031225508
000350 29 91 da 3d 20 4f 0d 3e c5 1b 02 3e c9 fd 7f 3d
       0.10672218 0.13799715 0.12705906 0.062497888
000360 9b 1e 2b 3c 92 ba 03 bd f3 c2 18 be 98 33 7e 3c
       0.010444309 -0.03216035 -0.14918117 0.015515231
000370 30 14 2f be db c6 3a bb 11 1d 65 3e be bc 11 3e
       -0.17097545 -0.0028499875 0.22374369 0.14232156
000380 67 02 3d 3e b2 8b a8 3d 1b 24 41 bd d7 19 c7 bc
       0.18457948 0.0822977 -0.047153573 -0.024304314
000390 a9 49 be bc 72 36 8f 3d 18 07 1e be d7 bc bf bc
       -0.023228483 0.069928065 -0.15432394 -0.023405476
0003a0 10 d1 11 be c7 41 9c bd 1d bf 25 3d ec f9 16 3e
       -0.14239907 -0.076297335 0.040465463 0.14743775
0003b0 7f 67 8c 3d 33 f7 61 bd 88 21 cc bc 57 96 79 3c
       0.06855678 -0.05516739 -0.024918333 0.015233598
0003c0 0f da bd bc d8 2c 26 3d 52 fe 87 3d 51 84 28 3c
       -0.023175268 0.04057011 0.066403046 0.010285453
0003d0 9a 3d 11 be e3 19 c3 3d 8f ac bf 3b 5c 2b 3c 3d
       -0.14183655 0.09526422 0.005849428 0.04593979
0003e0 29 a4 02 3e 1e 06 d1 3d b0 a1 12 3c 9c 7d 78 bd
       0.12757935 0.10206245 0.008949682 -0.060666665
0003f0 aa 33 0d 3e cb 5b 8a bd 2b 59 4d bd 62 d0 a0 3c
       0.1378924 -0.06755789 -0.050133865 0.019630615

bias f4 [64]
000000 5f cb 43 3d f2 8b 77 bd 91 e5 82 3d 00 de 03 3d
       0.04780137 -0.060436197 0.063914426 0.032194138
000010 85 20 73 3e c5 67 27 3e 2d e4 77 bd 4b 57 ac bd
       0.23742874 0.16348179 -0.06052034 -0.08415087
000020 92 9b 86 3d bd 96 a1 3e 64 19 c2 bc 37 9f 9d 3d
       0.065726414 0.31560317 -0.023693748 0.076963834
000030 6e 55 37 bd 70 67 be bc 45 3a 87 bd dd 1a 6c bd
       -0.044759206 -0.023242682 -0.06602911 -0.057642806
000040 fc ad be 3d 6e 56 8a 3d 64 32 95 bc 36 0a 0b 3d
       0.09310529 0.067547664 -0.018212505 0.033945285
000050 cd 1c 0d bd cd 2d 82 bc c9 98 e1 3c 5f a0 89 3d
       -0.034451295 -0.01589098 0.027538674 0.067200415
000060 74 8a 03 bd b7 08 32 3e 74 12 21 bd 1e 7f f7 3d
       -0.03211446 0.17386137 -0.03932424 0.120847926
000070 6b e4 0c 3d 8f 84 ea 3d 1d 9b a6 3d 52 94 e9 bc
       0.034397524 0.11451065 0.08135054 -0.028513107
000080 e2 d7 33 bd a7 a9 95 3d a9 bb b7 3c b4 ac ce bc
       -0.043907054 0.07307749 0.02242835 -0.025228836
000090 43 4e bb 3c 14 50 8a bd 8c d1 1f bc 1e 79 18 3e
       0.022864467 -0.06753555 -0.00975455 0.14889953
0000a0 cb 6b 9b bd 3a 24 54 3c bb 63 6a bc bd 11 79 3d
       -0.07588919 0.01294809 -0.014306004 0.060807932
0000b0 91 d9 c1 3d 6a a1 22 3c 7d 91 f4 3d 3c 60 0e 3e
       0.094653256 0.009926179 0.11941812 0.13903898
0000c0 e1 42 bb bd 69 04 0b bd 34 95 2c bc d6 fb b7 bd
       -0.091436155 -0.033939753 -0.01053362 -0.08983581
0000d0 06 db a9 bd 86 10 bd 3c 0d 09 4f 3d 5d 81 26 bb
       -0.082937285 0.023079168 0.05054574 -0.0025406696
0000e0 cb 3c 58 bc 0d b1 84 3d 1e 68 5d 3e 25 73 90 bd
       -0.013198088 0.06479082 0.21621749 -0.07053212
0000f0 c6 04 98 bd c1 07 9a bd d0 d0 93 bc 97 77 75 3e
       -0.074227855 -0.0752101 -0.018043905 0.23971401

weight f4 [1, 64]
000000 fb a3 27 bf 90 15 39 be 59 a2 13 bf ef 5c f4 be
       -0.6548459 -0.18074632 -0.576696 -0.47727153
000010 1c 35 5b 3f be c8 cc bf d3 e4 8d be a3 40 e5 3d
       0.85627913 -1.5998762 -0.27713642 0.11193969
000020 aa da 8f bc e4 19 c6 3f cf 04 cd 3d 56 c2 97 3d
       -0.017560322 1.5476651 0.10010683 0.074101135
000030 62 f3 d8 be 06 6e 32 bf ba 34 6e be 95 f9 80 3e
       -0.42373186 -0.6969913 -0.23262301 0.25190416
000040 d1 5a 8c bf 30 cc c2 3d 7b ce c6 3e 7b 01 75 3d
       -1.0965215 0.09511602 0.38829407 0.059815865
000050 d8 46 bd be 4d 3b 1b be 39 dd c0 3d b9 68 db 3c
       -0.36968112 -0.1515934 0.09417195 0.026783334
000060 6c 1a 21 3d ce 9c 81 bf 90 9a 80 be 23 ae 8b 3f
       0.03933184 -1.0125978 -0.25117922 1.0912517
000070 83 db 32 bf 8f c7 8a 3f bc af 2f 3f 57 c9 04 bf
       -0.698662 1.084215 0.68627524 -0.5186972
000080 8f f4 91 be c9 36 21 bd 19 5b 60 be 89 b8 4e bd
       -0.28506896 -0.039358888 -0.21909751 -0.050468955
000090 86 8e 39 bf b8 14 cc be 6a 63 99 bc 3c cb a0 3f
       -0.724831 -0.39859557 -0.018724162 1.2562022
0000a0 a7 a8 c2 bd 57 bd 25 3d d6 96 93 bd f6 91 ab 3e
       -0.09504824 0.04046377 -0.07206504 0.33509797
0000b0 8e b0 00 bf c2 64 11 be f2 1e 8a be 56 6d db 3e
       -0.502694 -0.14198592 -0.26976734 0.42856854
0000c0 e1 bd bb bd 49 a0 91 3b 68 59 f8 3d cf 13 e4 3c
       -0.09167076 0.0044441563 0.12126428 0.027841477
0000d0 99 20 c4 bc ef 9f 80 3e 88 89 22 bd b8 09 d2 3d
       -0.023941325 0.2512202 -0.03968194 0.1025576
0000e0 fb 5c a0 be 11 d1 05 be f6 6a b1 3f 13 63 81 bd
       -0.31320938 -0.13068034 1.3860767 -0.06317725
0000f0 73 5d 8c 3d 7f d6 41 be 0c 5f 47 be ab 56 7f 3f
       0.068537615 -0.1892948 -0.19469851 0.9974162

weight f4 [64, 96]
000000 b8 b0 1b 3d 3b c8 bf bd d4 bb ef 3d e5 76 fd 3d
       0.03801033 -0.09364363 0.11705747 0.12376193
000010 21 7a 8c bd 70 c1 98 bd 7e 2e 92 3a 37 b4 8d bd
       -0.06859232 -0.0745877 0.0011152772 -0.06919139
000020 9a 72 65 3d f4 93 88 bd 35 4e 06 3e 23 23 8c 3d
       0.056017496 -0.06668845 0.13115771 0.06842639
000030 d1 26 d1 bd 33 7c d7 bd 08 12 1a 3e 82 db ba bc
       -0.10212482 -0.10521736 0.15045941 -0.022809748
000040 74 46 8e bc fb 49 00 be ec 1e 92 3d 16 4e 9f 3c
       -0.017367579 -0.12528221 0.07134804 0.019446414
000050 91 b1 00 3e 24 86 4a bd 46 71 45 bc 29 8d 57 bc
       0.12567736 -0.049444333 -0.012050932 -0.013156214
000060 fb c8 fd bb 27 12 8a bd 4e 28 e9 bc df 62 c2 3e
       -0.007744906 -0.067417435 -0.028461602 0.37966058
000070 e9 3e 23 3e b7 c7 07 be ab e9 dd bb ce fd 1e be
       0.15941967 -0.13259779 -0.00677224 -0.15526506
000080 14 22 5e 3c 78 32 a0 3d 36 b5 cf bd ff 46 3c be
       0.01355793 0.07822126 -0.10141985 -0.18386458
000090 7a af 8a 3c 0d f0 44 bc 07 9c 41 bd e6 17 d7 bd
       0.016929377 -0.012020123 -0.04726794 -0.10502605
0000a0 60 68 b9 bb 42 b5 06 bd f7 89 92 3d 21 5b 54 be
       -0.0056581944 -0.032887705 0.07155221 -0.20737888
0000b0 02 f9 d0 bc 6f ad 2f 3e a8 83 1a 3e 19 eb fb 3d
       -0.025509361 0.17156003 0.15089285 0.12300701
0000c0 f4 8f 06 be 81 89 56 bd 04 ae 93 be 51 2d 48 3d
       -0.13140851 -0.052377228 -0.288437 0.048871342
0000d0 16 b0 e1 3d 8a 5b 56 3e 44 96 56 bd 71 cf 46 be
       0.11019914 0.20933357 -0.0523894 -0.1941507
0000e0 28 ee 6b 3c 7c 12 bb bd 57 6b 8b 3c 4d 8a b8 3d
       0.014400043 -0.09134385 0.017018957 0.09010754
0000f0 3b f5 b5 bd 75 61 e4 bd 66 a8 64 bd 02 29 1a bc
       -0.088846646 -0.11151401 -0.05582466 -0.009409191
000100 76 4b 25 bc ff 3d 96 3e ea 7c 5b 3e 61 a1 7a 3d
       -0.010088792 0.29344174 0.2143437 0.06118906
000110 25 5d bb 3d 34 1b 24 bd 83 ec fe bd e7 01 a3 3d
       0.09148625 -0.040065005 -0.12447455 0.07959347
000120 72 5a 0e be ed 48 16 3e 87 15 16 bc f4 23 cf bc
       -0.1390169 0.14676256 -0.009160406 -0.025285698
000130 09 e4 e8 bd 48 21 40 3d 1a c3 71 bb fe 80 a8 bd
       -0.11371619 0.04690674 -0.0036889971 -0.08227728
000140 7a 04 36 bd ab 77 8b bc 18 bc e9 3d e6 69 93 3e
       -0.044437863 -0.017024836 0.11412829 0.28791732
000150 13 f4 77 bc 80 48 b7 bd 90 d3 8c 3d c2 33 72 3e
       -0.015133875 -0.08949375 0.0687629 0.23652557
000160 0d 71 28 3e a9 ca 66 3c e0 c1 f2 3d 3b 85 27 3d
       0.16449375 0.014086404 0.11853385 0.040898543
000170 7b 0d a5 bd 52 25 d7 3d a4 92 44 bc 11 9b e1 3d
       -0.08059212 0.10505165 -0.0119978525 0.11015905
000180 8f 80 c4 3d 32 ec ee 3a 30 9f 1d 3e ef 42 49 3e
       0.09594833 0.0018228351 0.15392756 0.1965444
000190 4e b6 1d bd 62 80 2c be cc cb 8a 3c b3 36 1d 3c
       -0.038503937 -0.16845849 0.016942881 0.009595561
0001a0 9c 79 9b 3d cc 80 50 3d 16 01 20 3d 59 27 33 3e
       0.075915545 0.05090408 0.039063536 0.17495479
0001b0 f5 be 1f be 0e 94 21 bc ba d2 77 3e a0 dc e4 bb
       -0.15600188 -0.009861959 0.2420148 -0.0069843084
0001c0 da 17 45 3d ed 14 2b bd 61 af 6d 3e 02 64 df 3d
       0.04811845 -0.041768003 0.23211433 0.10907747
0001d0 da d4 33 3d 5a 5e 7f bd a8 8b 89 3c e3 a3 b3 3b
       0.043904163 -0.06234584 0.016790226 0.0054821833
0001e0 47 24 bc 3c bf 37 ff bc b1 2b c3 3d 6a 7d 70 3e
       0.022966517 -0.031154511 0.09529818 0.23485342
0001f0 57 e7 7e bd eb 5a 8d bd 76 db 63 bd 43 11 2e be
       -0.06223234 -0.06902107 -0.055629216 -0.16998772
000200 1e cf 36 bd a5 1a 56 3e f4 30 bc 3d 2f 0b 94 b9
       -0.044631116 0.20908602 0.091890246 -0.00028237092
000210 63 ab ce bd 2f e5 b7 3d 1b 89 9d bd fb 23 13 be
       -0.10091283 0.0897926 -0.076921664 -0.14369194
000220 ed 44 15 3c 67 40 aa bd 6e 13 5d bd 1f 3a 01 be
       0.0091106715 -0.08313065 -0.053973608 -0.12619828
000230 90 a8 d7 3d 0e d4 1c 3c 68 2f 8c 3e be 34 4c 3d
       0.105301976 0.009572042 0.27379918 0.049854986
000240 15 e1 1e be 36 6c 92 bc 69 e5 2d be 67 c9 84 bc
       -0.1551555 -0.017873865 -0.16982044 -0.016209317
000250 c6 dd a0 3d b4 14 0b 3d 2e 6b be bd b5 65 86 bd
       0.078548 0.03395529 -0.09297787 -0.06562368
000260 8b 76 fc bc a7 ec 74 bc 2d d7 16 be 78 67 1c 3d
       -0.030818244 -0.014949 -0.1473052 0.038184613
000270 9f 1d 16 be 46 49 0a bd d5 49 02 be 52 97 5f bd
       -0.14659737 -0.033761285 -0.12723477 -0.05458767
000280 1c d0 bd bd ab dd c8 3d 17 c8 d3 3d 80 4b 98 3d
       -0.09268209 0.09807905 0.103408985 0.074362755
000290 f7 97 2a bd 25 ca 89 bc 20 32 48 bd a5 95 70 3e
       -0.04164883 -0.016820023 -0.048875928 0.23494585
0002a0 d5 1d 12 bd 3c 94 30 3e 78 98 37 3d d5 68 5d be
       -0.03567298 0.17244047 0.04482314 -0.21622021
0002b0 3c 68 1f 3c 1e 0c 4d 3e 50 9b 1c 3d e1 2c 2c bd
       0.009729441 0.20024154 0.038234055 -0.042034987
0002c0 f2 8d 87 bd 58 24 97 3c c2 d5 e8 3d f9 61 5c 3e
       -0.06618871 0.018449947 0.11368896 0.21521749
0002d0 0e 66 84 3d e3 bd 19 be da 4b 01 3d ee d2 4a 3e
       0.06464778 -0.15013842 0.03156648 0.19807026
0002e0 45 74 31 3e be 3f 0c be 19 31 34 3a 69 e2 25 be
       0.1732951 -0.1369619 0.0006873771 -0.1619965
0002f0 e4 8c a6 bc b2 f8 ec 3d cc 26 39 3c 82 75 1a 3d
       -0.020330854 0.11570872 0.011300754 0.03770972
000300 b8 74 48 3d d4 9a 55 bc b2 64 de 3d 53 bb 1c 3d
       0.048939437 -0.013037402 0.1085905 0.038264584
000310 34 2e e2 bb fa 11 aa bc 67 2c a8 3c f2 5b 56 3c
       -0.0069024805 -0.020760525 0.020528985 0.013083445
000320 6a 81 d6 3d 62 13 2d bd f1 36 45 bd 16 29 be 3d
       0.104739025 -0.042254813 -0.0481481 0.0928518
000330 a1 56 4b bc 17 bc 84 3d ac b7 cb bc 57 c3 1e be
       -0.012410791 0.06481188 -0.024867855 -0.15504204
000340 7d 2b a6 3d 49 72 3b bc 8d 8a 1b 3d e1 7b 7b 3b
       0.081137635 -0.011440822 0.03797393 0.0038373398
000350 3f 21 ae 3c c9 54 0b be 66 7b b6 3d 9b f4 8e 3d
       0.021256087 -0.13606562 0.08910255 0.069802485
000360 4b 36 b3 bd 5e 41 18 bd 20 6d dd 3d 22 cf 43 bd
       -0.0875059 -0.037171714 0.108118296 -0.04780496
000370 86 6c a0 bd a7 e3 a9 bc c3 c0 6a bd bd 11 cf bc
       -0.07833199 -0.020738436 -0.05731274 -0.025277013
000380 d6 b8 44 3d 7c 2a 24 bd 6f 42 71 bd b4 a7 e5 bc
       0.048027836 -0.04007958 -0.058901247 -0.028034069
000390 64 54 73 3d db a4 dd 3d fa 25 36 bc 7a 3c d6 bd
       0.059406653 0.10822459 -0.011117453 -0.10460754
0003a0 43 c2 50 bd 2d 2f c9 bd 19 14 a2 3d cc f2 f6 3c
       -0.050966512 -0.09823451 0.079139896 0.030145071
0003b0 b2 45 2e 3d 30 a0 11 3c 4b fe 56 3d a2 bc c4 3b
       0.042546935 0.008888289 0.052488606 0.006003932
0003c0 75 9e 60 3d e2 f0 49 bc 00 ce e5 bd 66 1b b3 bd
       0.054838616 -0.012325497 -0.11220932 -0.0874546
0003d0 5f 85 15 3e 1d 82 54 bd cb d6 9d bd 84 51 da 39
       0.14601658 -0.0518819 -0.07706984 0.00041640934
0003e0 56 af 4c 3d b7 40 b5 bd 67 92 59 bd 93 64 25 3d
       0.0499719 -0.08850234 -0.053118136 0.04037912
0003f0 8c 01 86 bd 9e 7f e2 bd 8a 1c 5c 3d fd e2 b4 3d
       -0.06543264 -0.11059497 0.053738154 0.08832357

bias f4 [64]
000000 91 69 9e 3d 13 9b 93 3c 48 22 a0 bd ae 5b 90 3c
       0.07734979 0.018018281 -0.07819039 0.017621841
000010 14 57 eb 3c fc a4 e9 3d 49 8c 7a bc d0 de bd 3c
       0.028728046 0.114084214 -0.015292236 0.023177534
000020 c2 e1 3e bd 89 98 65 bd f4 f3 da 3c 98 7d 07 bd
       -0.04660202 -0.056053672 0.026727654 -0.03307876
000030 ce a9 5e 3d 4a 3c 04 3c b6 68 80 3d 6d e5 57 bd
       0.054361157 0.008071015 0.06269972 -0.05270903
000040 ad 7c 4c bd 40 0c fd 3c 03 92 92 3d 83 33 ff bc
       -0.049923588 0.03088963 0.07156756 -0.031152492
000050 29 83 a8 3d c6 91 00 3d e6 b5 51 bd 1e 54 ad 3c
       0.08228142 0.03138902 -0.051198862 0.021158274
000060 22 2c 94 3c dd 8b 20 be 9d 37 66 3d fc 53 43 bd
       0.01808745 -0.15678354 0.05620538 -0.047687516
000070 9b 0f 31 3d 25 2d e7 bc 10 37 9e bd 66 1b 03 be
       0.043227773 -0.028219769 -0.07725346 -0.1280342
000080 6d 71 93 3d da 8c a1 bd 27 97 9e 3c 38 5a d1 3c
       0.071993686 -0.078881934 0.019359184 0.025555715
000090 9c 4e 0e bd f9 09 0d 3e b2 e8 b3 3d dd e5 bf bd
       -0.034742936 0.13773336 0.087846175 -0.09370015
0000a0 04 4d fd 3c 10 2f 89 3c 53 80 c1 3d f4 77 5f 3d
       0.030920513 0.016746074 0.09448304 0.054557756
0000b0 32 d0 95 bc 0e 17 25 3d a1 1f e0 3c 4f ed 9a bc
       -0.018287752 0.04030519 0.027358832 -0.018911986
0000c0 52 42 2b 3d 50 91 4c bd 64 55 ae 3c 8b 83 0c 3d
       0.041811295 -0.04994327 0.021280952 0.034305137
0000d0 72 b6 10 bc 0d 06 24 bd 4f 84 63 bc 42 6b 49 3d
       -0.008832561 -0.040044833 -0.013886525 0.049174555
0000e0 0a 4f 8f 3c b9 76 94 bc 99 0e 7a bd f5 d3 05 be
       0.017493743 -0.018123018 -0.061049078 -0.13069136
0000f0 62 27 96 bd 45 89 a9 3c 2c d7 e9 3c ff 7c 13 bd
       -0.073317304 0.020695338 0.028544985 -0.036007877
