complex/model-complex.pth (torch, 75397 bytes, 27 tensors)

weight f4 [8, 1, 3, 3]
0	0x3ea4224f	0.32057425
1	0x3fb0e12c	1.3818717
2	0xbfc5a5fc	-1.544128
3	0xbf387638	-0.7205539
4	0x3e453ce6	0.19261512
5	0xbedc0dee	-0.42979378
6	0xbe542ee2	-0.2072101
7	0x3d70c6e8	0.05878344
8	0xbd600ed8	-0.054701656
9	0xbf3a7acf	-0.7284364
10	0x3f120d8d	0.57051927
11	0xbec6acdf	-0.38803765
12	0xbf9aa5b7	-1.2081822
13	0x3f6228b9	0.8834339
14	0x3fb6ff91	1.4296743
15	0xbf95fde4	-1.1718106
16	0x3f97bb5d	1.1854054
17	0xbd08a9ab	-0.033364933
18	0xbee19d67	-0.440654
19	0xbfbf1ee5	-1.4931303
20	0x3fb53eec	1.4159827
21	0x3fc1cd74	1.5140824
22	0xbf6481f8	-0.89260817
23	0xbf428928	-0.75990534
24	0x3f8940e4	1.0722928
25	0x3e81f59a	0.25382692
26	0x3e0cd4d7	0.13753067
27	0xbea8004b	-0.32812724
28	0x3f11682b	0.5679957
29	0x3ec127e4	0.37725747
30	0xbf5fed28	-0.87471247
31	0xbe7ef928	-0.24899733
32	0x3eedd54f	0.46451804
33	0xbf36c710	-0.71397495
34	0x3f22f7f7	0.63659614
35	0xbf408dcf	-0.7521638
36	0xbe962a53	-0.29329166
37	0x3edd2e46	0.43199366
38	0x3e6ca5f9	0.23110189
39	0x3ebe5522	0.37174326
40	0x3faecda6	1.3656509
41	0x3faccc46	1.3499839
42	0x3e123f48	0.14281952
43	0x3ea2d6de	0.31804556
44	0xbee05e60	-0.43822002
45	0x3fbac025	1.4589888
46	0xbf83727b	-1.0269312
47	0x3ee2aa5d	0.44270602
48	0x3fdc4a99	1.7210265
49	0xbeca5195	-0.39515367
50	0xbf47d369	-0.7805696
51	0xbf98faee	-1.1951578
52	0xbf906725	-1.1281477
53	0x3f68a7c7	0.9088101
54	0x3e0eaa97	0.13932262
55	0xbfae9ef8	-1.3642263
56	0x3fd02372	1.6260817
57	0x3e2241b2	0.15845373
58	0xbf4fb0aa	-0.8112894
59	0x3f0b70d4	0.5446904
60	0x3f0976ef	0.53697103
61	0xbf3b7906	-0.7323154
62	0xbf7a8482	-0.9785844
63	0xbda76834	-0.08174172
64	0xbf355286	-0.70829046
65	0x3d73e42b	0.05954377
66	0x3d428c41	0.047497038
67	0x3fbbb500	1.4664612
68	0xbe3ab229	-0.18232025
69	0xbf66c196	-0.9013914
70	0x3dd97856	0.106186554
71	0xbf935c91	-1.1512624

weight f4 [8]
0	0x3fb5b4ad	1.4195763
1	0x3fa7964e	1.3092744
2	0x3f9a1624	1.2038007
3	0x3f942cb2	1.157614
4	0x400b4c18	2.1765194
5	0x3fb9e591	1.4523183
6	0x3facde38	1.3505316
7	0x3fb496c9	1.4108516

bias f4 [8]
0	0xbf0e6290	-0.55619144
1	0xbf0a1f52	-0.5395404
2	0x3ddc5a5e	0.10759424
3	0xbea49a9a	-0.32149202
4	0xbfad629b	-1.3545717
5	0xbe88ec30	-0.26742697
6	0xbd036750	-0.03208095
7	0x3e4a84f3	0.19777279

running_mean f4 [8]
0	0xbe9bf0f4	-0.3045727
1	0x3e287106	0.16449365
2	0x3e821bb3	0.25411758
3	0xbe8a40d9	-0.270026
4	0x3f85edfe	1.0463254
5	0xbc111564	-0.008855198
6	0xbe8b7d85	-0.272442
7	0xbed2d52a	-0.41178256

running_var f4 [8]
0	0x3c88052e	0.016604032
1	0x3d10136c	0.035174772
2	0x3cf433ec	0.029809915
3	0x3c928fb6	0.017890792
4	0x3e01fae5	0.12693365
5	0x3cf073ce	0.029352095
6	0x3cb9370b	0.022609254
7	0x3c9c6bb0	0.019094318

weight f4 [8, 8, 3, 3]
0	0x3ec4ee46	0.38463038
1	0xbe7e9876	-0.24862847
2	0x3dfde90e	0.12397967
3	0xbeef4f33	-0.46740112
4	0xbd57b866	-0.05266609
5	0xbeb2da42	-0.34932142
6	0x3eb7e88e	0.35919613
7	0x3d828901	0.06373788
8	0xbe8fba34	-0.2807175
9	0x3b716e72	0.0036839512
10	0x3e602c87	0.21891986
11	0x3ed3e9f1	0.4138942
12	0xbfa8987d	-1.3171536
13	0xbe0e7fb2	-0.139159
14	0x3ed97063	0.42468557
15	0xbe66675c	-0.22500366
16	0x3e1cf1d0	0.15326619
17	0xbd16c61c	-0.036810026
18	0xbf337f8f	-0.70116514
19	0x3f33343b	0.7000157
20	0xbc824bb4	-0.015905239
21	0x3e1e0c70	0.15434432
22	0xbe30d3b1	-0.17268254
23	0xbe4c46de	-0.19948909
24	0xbf8b4537	-1.0880498
25	0xbea7bfe7	-0.32763597
26	0xbca0c2fc	-0.019624226
27	0xbe58054d	-0.21095772
28	0xbdd87b1c	-0.10570356
29	0x3e4e86f7	0.20168673
30	0xbf4c9c80	-0.799263
31	0xbe6ef595	-0.2333587
32	0xbcfea0c9	-0.031082528
33	0xbd6159db	-0.055017333
34	0xbd918f93	-0.07107463
35	0x3d431531	0.04762763
36	0x3f3c202b	0.73486584
37	0x3e4227d8	0.18960512
38	0xbeace208	-0.33766198
39	0xbf73c5ef	-0.952239
40	0xbe046737	-0.12929998
41	0xbdde226b	-0.108464085
42	0xbf104b63	-0.5636503
43	0x3eb36b38	0.3504274
44	0x3e32e82a	0.17471376
45	0xbe5d55b7	-0.21614729
46	0xbe5b11c2	-0.21393493
47	0xbe0883e8	-0.13331568
48	0x3d505997	0.05086669
49	0xbf8b1026	-1.0864303
50	0x3ea89aa8	0.32930493
51	0xbf3db10a	-0.74098265
52	0x3eb353f6	0.35024995
53	0x3dfabf0e	0.12243472
54	0xbe27ca3d	-0.16385742
55	0xbe189ab9	-0.14902772
56	0xbe859d34	-0.260965
57	0xbe289f73	-0.16467075
58	0xbf246ec1	-0.642315
59	0xbe8f0c93	-0.2793928
60	0xbdbaac73	-0.09114923
61	0x3d87b770	0.06626785
62	0x3e3e1089	0.18560995
63	0xbf61236d	-0.8794468
64	0xbe4bbb51	-0.19895674
65	0xbe9a5ea0	-0.30150318
66	0x3d75c83a	0.060005404
67	0x3e4bf1d3	0.19916467
68	0xbf268e6d	-0.65061074
69	0xbea700fa	-0.32617933
70	0xbf6d34b1	-0.92658526
71	0xbe8cf338	-0.2752931
72	0xbd37fd9f	-0.044919606
73	0x3e88016d	0.26563588
74	0x3dc52ec5	0.09628061
75	0x3e9d529e	0.30727094
76	0xbd69a478	-0.057041615
77	0x3e4607fd	0.19338985
78	0xbe3a40e3	-0.18188815
79	0xbe868783	-0.26275262
80	0x3d6b77b0	0.05748719
81	0xbe8d094a	-0.2754615
82	0xbf4d7a67	-0.80264896
83	0x3f3841a4	0.7197516
84	0xbe048365	-0.12940748
85	0x3e26a338	0.162732
86	0xbec4d776	-0.38445634
87	0xbe2e98a6	-0.17050418
88	0x3ed4add3	0.41538867
89	0xbe844632	-0.25834805
90	0x3ef973a3	0.48721036
91	0xbee18c0d	-0.44052163
92	0xbe0d31dc	-0.13788551
93	0x3e82a285	0.25514618
94	0xbe966f41	-0.29381755
95	0xbd34a261	-0.04410017
96	0xbeaf996c	-0.3429674
97	0x3e1098c8	0.14120781
98	0x3df60e56	0.12014453
99	0x3de0d394	0.10977855
100	0xbd7a718a	-0.061143436
101	0x3b7f712e	0.0038977372
102	0xbd370f92	-0.044692583
103	0x3e6f3d29	0.23363174
104	0x3d09188d	0.03347068
105	0xbe3ace32	-0.1824272
106	0xbc0ce9f2	-0.008600699
107	0x3f0bec03	0.54657
108	0x3d1327e6	0.035926722
109	0xbfb52484	-1.4151769
110	0x3e59ebd1	0.21281363
111	0xbf0a8950	-0.5411577
112	0xbe711ae0	-0.23545408
113	0xbf271270	-0.6526251
114	0xbde704a6	-0.112801835
115	0x3e4017da	0.18759099
116	0xbeb0082e	-0.3438124
117	0xbe1f750e	-0.15571997
118	0xbe4ac894	-0.19803077
119	0xbdd256fe	-0.10270499
120	0x3ee7a667	0.45244142
121	0xbea44575	-0.32084242
122	0x3e39121e	0.18073317
123	0x3d63e816	0.055641256
124	0x3e0b56cf	0.13607334
125	0xbf2c3b24	-0.6727774
126	0xbced018b	-0.0289314
127	0xbf276b5e	-0.65398204
128	0xbee62d1f	-0.449563
129	0xbea834c4	-0.32852757
130	0x3ed33e57	0.412585
131	0x3e656253	0.22400789
132	0x3f23a5a2	0.6392461
133	0x3dab7b40	0.083731174
134	0x3e79232f	0.24329828
135	0x3ce67248	0.028130665
136	0xbea6a392	-0.3254667
137	0x3e8ec1a0	0.278821
138	0xbe2d4989	-0.16922583
139	0x3e96f0cd	0.2948059
140	0xbef86127	-0.4851162
141	0x3f0c105d	0.5471247
142	0x3e3e1fa9	0.18566765
143	0x3e0dc327	0.13843976
144	0x3ded8358	0.115973175
145	0xbf4c248c	-0.79743266
146	0xbe3a014e	-0.1816456
147	0x3e75709c	0.23968738
148	0xbd50ae18	-0.05094728
149	0xbf107b46	-0.564381
150	0x3cc42810	0.023944885
151	0xbdcf38dc	-0.10118267
152	0x3ec437e1	0.38323882
153	0xbe6df448	-0.23237717
154	0xbe8af1d9	-0.2713764
155	0x3e3685f6	0.1782454
156	0xbe184279	-0.14869107
157	0x3f4888e6	0.7833389
158	0xbedf7603	-0.43644723
159	0xbeb39367	-0.35073397
160	0x3ee08641	0.43852428
161	0xbf3d39ed	-0.7391651
162	0xbd2ddead	-0.04244869
163	0xbe92cb11	-0.28670552
164	0xbe2ed11c	-0.17071956
165	0x3e3831ff	0.17987822
166	0xbec3dd50	-0.38254786
167	0x3e40bfa5	0.18823107
168	0xbeac7dd9	-0.33689764
169	0xbf2d1845	-0.6761516
170	0xbeeb5787	-0.45965216
171	0x3d83651d	0.0641577
172	0xbd9c738e	-0.07639228
173	0xbf12ccb9	-0.5734363
174	0xbe3ab324	-0.18232399
175	0xbec2e60b	-0.38066134
176	0x3e034043	0.12817483
177	0x3e03cccb	0.12871091
178	0x3f073d21	0.5282765
179	0xbea075f4	-0.3133999
180	0x3eb6c57e	0.3569755
181	0xbf67e21b	-0.90579385
182	0x3deef50f	0.11667835
183	0x3e8154a7	0.25259897
184	0xbda6048c	-0.08106336
185	0xbf34c971	-0.70619875
186	0xbc15cdca	-0.009143302
187	0x3ec62965	0.38703457
188	0x3d10ef08	0.035384208
189	0x3eaaad25	0.33335224
190	0xbf810efc	-1.0082698
191	0x3ec5d1f3	0.3863674
192	0xbdefa7f1	-0.11701954
193	0x3f4052f2	0.75126565
194	0xbec1c5d1	-0.37846234
195	0xbe247ec7	-0.16063987
196	0xbe7195ba	-0.23592272
197	0x3edca025	0.4309093
198	0xbeabfa89	-0.3358958
199	0x3e732844	0.23745829
200	0x3d1b24d8	0.037876934
201	0xbd9a73ce	-0.07541619
202	0xbee6e902	-0.45099646
203	0x3ef384c6	0.47562236
204	0xbde8aa9e	-0.11360668
205	0xbea888d9	-0.32916906
206	0xbecd581a	-0.4010628
207	0x3da5de7c	0.08099076
208	0xbe83adeb	-0.25718626
209	0x3e224daf	0.15849946
210	0xbeceb7e6	-0.40374678
211	0xbe00877c	-0.12551683
212	0x3e5e06f6	0.21682343
213	0x3ee05079	0.43811396
214	0x3da1dfbb	0.07904001
215	0x3e22baeb	0.15891616
216	0x3e89b2a5	0.26894107
217	0x3d1107ca	0.03540782
218	0x3df7439f	0.120734446
219	0xbe833596	-0.2562682
220	0x3e31a63d	0.17348571
221	0xbd23bddc	-0.039975986
222	0xbe776493	-0.2415946
223	0xbdcd3f4d	-0.10021839
224	0x3ec9cdf7	0.3941495
225	0xbea67bd3	-0.32516345
226	0xbeabb823	-0.33538923
227	0x3f57f613	0.84359854
228	0xbeb60fa3	-0.35558805
229	0xbf0a0554	-0.5391438
230	0xbdfd41fe	-0.12366103
231	0xbe1aaafa	-0.15104285
232	0xbddf6fac	-0.109099716
233	0xbace3c53	-0.0015734531
234	0xbf69ddc3	-0.91354007
235	0x3e9f14ac	0.3107046
236	0x3e81b1a3	0.2533084
237	0x3eff33c2	0.49844176
238	0xbf1453e3	-0.579405
239	0xbf4053b4	-0.7512772
240	0x3f1c3fd6	0.61034906
241	0xbe8a6a2e	-0.27034134
242	0x3f091d12	0.5355998
243	0x3daf067c	0.08546159
244	0xbf1b21b5	-0.6059831
245	0xbe47e1a9	-0.19519676
246	0x3ec45687	0.38347265
247	0xbef87401	-0.48526004
248	0x3cc127da	0.023578573
249	0x3b5585a0	0.0032580867
250	0xbed04573	-0.40677986
251	0xbc86c8ec	-0.016453229
252	0x3e81ad9e	0.25327772
253	0xbf12a537	-0.5728335
254	0xbf12ad41	-0.57295614
255	0xbf2a04e4	-0.6641371

weight f4 [8]
0	0x3fb24d85	1.3929907
1	0x3fc86dc0	1.5658493
2	0x3fd286cb	1.6447386
3	0x3f9e123f	1.2349318
4	0x3f98afde	1.192867
5	0x3fbca60f	1.4738177
6	0x3fb2769d	1.3942448
7	0x3fb7b004	1.4350591

bias f4 [8]
0	0x3e664b71	0.22489716
1	0xbe3f1c83	-0.1866322
2	0xbe4f55b7	-0.20247541
3	0xbe403198	-0.18768919
4	0xbf16af94	-0.5886166
5	0xbe7fb0ac	-0.24969739
6	0xbe093198	-0.13397825
7	0xbe12badb	-0.14329092

running_mean f4 [8]
0	0xc0ad7500	-5.420532
1	0xbf9b421d	-1.2129551
2	0xbff7dc0b	-1.9364027
3	0xc0442680	-3.0648499
4	0x3fc1ca91	1.5139943
5	0xbf2e57c2	-0.6810266
6	0xbfabd830	-1.342535
7	0x3e6401f7	0.22266375

running_var f4 [8]
0	0x41235faa	10.2108555
1	0x411a6696	9.650045
2	0x41038049	8.21882
3	0x40dc176d	6.8778596
4	0x40be7b4e	5.952552
5	0x40e85703	7.2606215
6	0x41223e37	10.140189
7	0x414c6600	12.774902

weight f4 [8, 8, 3, 3]
0	0x3e2b2f0a	0.16717163
1	0x3f3cd1fc	0.7375791
2	0xbd9014e2	-0.07035233
3	0xbead32e8	-0.338279
4	0x3e1fa0c4	0.15588671
5	0x3dde1658	0.108441055
6	0xbeb9f7f5	-0.3632199
7	0x3f26c37e	0.6514205
8	0xbedae3f0	-0.42752028
9	0xbc3a9b38	-0.011389546
10	0xbde534fd	-0.11191747
11	0x3e9a5cb1	0.30148843
12	0x3e8cd356	0.27504987
13	0x3d87c492	0.0662929
14	0x3eb4dd60	0.35325146
15	0x3ce84a02	0.028355602
16	0x3c5f4a98	0.013628624
17	0xbec89aca	-0.39180595
18	0xbe49358d	-0.19649334
19	0xbe3340f4	-0.17505246
20	0x3dcd507d	0.100251175
21	0x3e1da339	0.15394296
22	0x3e8d04c7	0.27542707
23	0x3ebd3004	0.36950696
24	0xbdb1958e	-0.086711034
25	0xbead619d	-0.33863536
26	0x3e51155b	0.20418303
27	0x3e4ef57e	0.20210835
28	0xbe256bb0	-0.16154361
29	0x3e79cdba	0.24394885
30	0xbe7a037e	-0.24415395
31	0xbecbe873	-0.39825782
32	0xbebef3ef	-0.37295482
33	0x3f30f0a2	0.69117177
34	0xbde8ef8e	-0.113738164
35	0xbc8f6fad	-0.017509306
36	0xbe3f5eb0	-0.18688464
37	0xbf357456	-0.7088064
38	0xbe01ab17	-0.12662922
39	0x3d002659	0.03128657
40	0xbe92dae9	-0.2868264
41	0xbdb13b8c	-0.08653936
42	0xbf18b670	-0.5965338
43	0x3ca8e5a9	0.020617323
44	0xbf28c843	-0.65930575
45	0xbf1864bb	-0.595287
46	0x3e5b768d	0.21431942
47	0xbe721c94	-0.23643714
48	0x3e1fc896	0.15603861
49	0xbe3fd95d	-0.18735261
50	0x3ef0e039	0.47046068
51	0x3f4f2715	0.8091901
52	0xbe895548	-0.26822877
53	0x3da8aae9	0.082357235
54	0xbe516040	-0.20446873
55	0x3d840936	0.06447069
56	0xbf0300e5	-0.5117324
57	0xbea6727c	-0.3250922
58	0x3c98dd30	0.018660158
59	0xbf275708	-0.65367174
60	0xbf47b190	-0.78005314
61	0x3b8a238c	0.0042156633
62	0x3e3ea962	0.18619302
63	0xbf3c70fe	-0.7360991
64	0xbb2df8f1	-0.0026546086
65	0x3ecf0192	0.40430886
66	0xbfa05155	-1.252482
67	0x3f203a92	0.6258937
68	0x3de49aa5	0.111623086
69	0xbf0f53a5	-0.55987006
70	0x3eae6642	0.34062392
71	0xbe835547	-0.25651
72	0x3f2f00c4	0.68360543
73	0xbf6f5039	-0.93481785
74	0xbe7c9cae	-0.24669144
75	0xbe10c75e	-0.14138553
76	0x3ea02922	0.31281382
77	0x3f30513d	0.6887396
78	0x3e7ad3ce	0.2449486
79	0x3e4f530a	0.2024652
80	0xbf057582	-0.5213243
81	0xbbc98a93	-0.0061505525
82	0x3edda756	0.4329173
83	0xbe19f59f	-0.15035103
84	0xbe0866bb	-0.13320439
85	0x3d90968e	0.07059966
86	0xbf09b257	-0.5378775
87	0xbe295c90	-0.16539216
88	0x3dc98dcb	0.09841498
89	0x3d88bfc0	0.066771984
90	0xbc3c5c6d	-0.011496645
91	0xbdc2aab4	-0.09505215
92	0xbdd1d856	-0.10246341
93	0x3de6695c	0.112505645
94	0xbecedbfe	-0.40402216
95	0x3e38f6c2	0.1806288
96	0x3ed8c2d0	0.4233613
97	0x3f12c4bd	0.5733145
98	0xbe4868e1	-0.19571258
99	0x3ef2eff7	0.47448704
100	0xbf26b069	-0.6511293
101	0xbf32307f	-0.6960525
102	0x3dc23045	0.09481863
103	0xbe9baf87	-0.30407354
104	0xbd925228	-0.07144576
105	0xbf4df546	-0.8045238
106	0x3e637ef7	0.22216402
107	0xbecf9a20	-0.40547276
108	0xbd2cbdeb	-0.042173307
109	0xbf19feac	-0.60154223
110	0x3b4e6120	0.0031490996
111	0xbbb46f98	-0.005506467
112	0xbe8e195e	-0.2775373
113	0x3e64b0e3	0.22333102
114	0x3e52ccf6	0.20585999
115	0xbdd10944	-0.102068454
116	0xbddba276	-0.10724346
117	0xbdc63594	-0.09678188
118	0x3e59b6d2	0.21261147
119	0xbd162a9c	-0.03666173
120	0x3ea2f145	0.318247
121	0xbe9db1a9	-0.30799606
122	0x3dae5793	0.08512797
123	0xbdfa4e54	-0.12221971
124	0xbf07f732	-0.53111565
125	0x3e399140	0.18121815
126	0x3e347fe4	0.17626911
127	0xbda55ec9	-0.080747195
128	0xbf785ca7	-0.97016376
129	0x3f5098fa	0.81483424
130	0xbe4bbd14	-0.19896346
131	0xbf9e7829	-1.238042
132	0x3e794d28	0.24345839
133	0xbe950c4b	-0.2911094
134	0x3f03f7d0	0.51550007
135	0x3c85318b	0.016258975
136	0x3df6290d	0.120195486
137	0xbeea7b8d	-0.45797387
138	0xbe0172ad	-0.12641402
139	0x3e42a5ed	0.19008608
140	0x3f5b1f2d	0.85594445
141	0xbbca1372	-0.006166869
142	0xbecebc3e	-0.40377992
143	0x3ec0681c	0.3757943
144	0xbdf3b64b	-0.11900004
145	0xbea22d8b	-0.31675372
146	0x3e2e150f	0.1700022
147	0xbeb60f36	-0.3555848
148	0xbdfbd23e	-0.1229596
149	0x3e69793c	0.22800153
150	0x3ed11c29	0.40841797
151	0xbeafa5ac	-0.34306085
152	0x3e42f828	0.19039977
153	0xbdaeb674	-0.08530894
154	0x3d672df1	0.056440298
155	0x3f3c80e5	0.7363418
156	0x3e5899c9	0.21152414
157	0xbec6c140	-0.38819313
158	0x3c3cb3c9	0.0115174735
159	0x3e6c82ea	0.23096815
160	0x3e49ba1f	0.19699906
161	0x3d36ced9	0.04463086
162	0xbda7964a	-0.08182962
163	0xbe8b3be9	-0.27194145
164	0x3f142d39	0.57881504
165	0x3e13d16d	0.14435358
166	0xbee9c1f1	-0.45655778
167	0x3eaef839	0.34173754
168	0xbe5daf88	-0.21648991
169	0x3f23802c	0.6386745
170	0xbfa051c8	-1.2524958
171	0xbdb3be8a	-0.08776577
172	0xbe6fb1d4	-0.2340768
173	0x3ecec7f8	0.4038694
174	0x3dfe8da1	0.12429357
175	0xbe519d68	-0.20470202
176	0x3e6894b4	0.22712976
177	0xbdd30f09	-0.10305602
178	0xbede3de8	-0.43406606
179	0xbe884510	-0.2661519
180	0xbebc2add	-0.36751452
181	0xbc1441c9	-0.0090488875
182	0xbc60cca4	-0.013720665
183	0xbf10824d	-0.56448823
184	0x3ec60064	0.38672173
185	0xbf32b866	-0.6981262
186	0xbec57570	-0.3856616
187	0xbe027f70	-0.12743926
188	0xbe0f82b8	-0.14014709
189	0x3f0f66b2	0.56016076
190	0xbeafac65	-0.34311214
191	0xbf67e036	-0.90576494
192	0xbe5c9d7a	-0.21544448
193	0x3efe88ee	0.49713844
194	0xbd0ca429	-0.034336243
195	0xbc709f4f	-0.01468642
196	0x3e0008ec	0.12503403
197	0xbe3ef8d9	-0.18649615
198	0xbe6f6534	-0.2337845
199	0x3e3de9e4	0.18546253
200	0xbf4589cb	-0.7716338
201	0xbf73b1b3	-0.9519302
202	0xbec816c5	-0.39079872
203	0xbe51c0c8	-0.20483696
204	0xbde40b66	-0.111349866
205	0xbdae20b4	-0.085023314
206	0x3ef0046f	0.46878383
207	0x3f06b7f4	0.5262444
208	0xbdd21782	-0.1025839
209	0xbeea4e6f	-0.45762965
210	0xbe648208	-0.22315228
211	0xbf1f4c69	-0.6222597
212	0xbce94085	-0.028473148
213	0xbef26494	-0.4734236
214	0xbf982069	-1.1884891
215	0x3eda8b6a	0.4268449
216	0xbf60770a	-0.8768164
217	0xbec07740	-0.3759098
218	0x3f2ddd0a	0.67915404
219	0xbe353ca1	-0.1769891
220	0xbcdbdeae	-0.02683958
221	0x3caa12de	0.02076095
222	0x3e6e7a84	0.23288924
223	0x3f2dfd96	0.67965066
224	0xbe50f6b3	-0.20406608
225	0x3dff6bb3	0.12471714
226	0xbecadd39	-0.39621904
227	0xbd69a285	-0.057039756
228	0x3e5c5b67	0.21519242
229	0xbd9618dc	-0.0732896
230	0xbe7d40c1	-0.24731733
231	0x3ef18130	0.47168875
232	0x3ea8f13a	0.3299654
233	0xbee5edd1	-0.44908002
234	0x3f181db9	0.59420353
235	0xbf189c47	-0.5961346
236	0x3d869223	0.06570842
237	0x3e5d0748	0.21584809
238	0xbed5d0c1	-0.4176083
239	0xbe980224	-0.29689133
240	0xbed27277	-0.41102955
241	0x3ed46513	0.41483364
242	0xbeb64546	-0.35599726
243	0x3edf7904	0.43647015
244	0xbea4816c	-0.3212999
245	0xbc22d361	-0.009938092
246	0xbe25e032	-0.16198805
247	0x3e20a0a5	0.15686281
248	0x3eabae37	0.33531353
249	0x3f0a1881	0.5394364
250	0xbcf95a0a	-0.030438442
251	0x3e8a4408	0.2700503
252	0xbee56c57	-0.4480922
253	0x3e4a62c4	0.19764239
254	0x3e631dcc	0.22179335
255	0x3d5a5b19	0.053309534

weight f4 [8]
0	0x3fb3c66a	1.4044926
1	0x3f815ff3	1.0107406
2	0x3fcbbdbd	1.5917279
3	0x3fb8c036	1.4433658
4	0x3fa6cf63	1.3032039
5	0x3faa983b	1.3327707
6	0x3f7c66c5	0.98594314
7	0x3fb892bb	1.4419779

bias f4 [8]
0	0xbf0e769e	-0.55649745
1	0xbe9a0896	-0.30084676
2	0xbf8ba66d	-1.0910164
3	0xbf70b745	-0.9402965
4	0xbe8b2a96	-0.27180928
5	0xbf1f43d8	-0.62212896
6	0xbd88ca4a	-0.066792086
7	0xbf218695	-0.6309598

running_mean f4 [8]
0	0xc031683d	-2.7719872
1	0xbf6dc1d9	-0.92873913
2	0xc077deee	-3.8729815
3	0xc0191e9c	-2.3924932
4	0xc037a68a	-2.8695397
5	0xc07d0b46	-3.953813
6	0x3eb840c3	0.3598691
7	0xc05414a4	-3.3137598

running_var f4 [8]
0	0x40db6e41	6.8572087
1	0x40cb9a33	6.362573
2	0x413a56c8	11.646187
3	0x40b260d3	5.5743194
4	0x41117112	9.090105
5	0x4111f669	9.122659
6	0x40dcdb52	6.9017725
7	0x40d93419	6.7876096

weight f4 [16, 8, 3, 3]
0	0x3e05f5db	0.13082068
1	0xbf31a57f	-0.6939315
2	0xbeb5a634	-0.35478365
3	0xbe8cf82d	-0.27533093
4	0x3e01ca40	0.12674809
5	0xbe0abd85	-0.13548858
6	0xbeb926bd	-0.36162367
7	0x3cd4fc97	0.02599935
8	0x3e09f551	0.13472487
9	0xbe85223e	-0.26002687
10	0xbf0f318e	-0.5593499
11	0xbefb3659	-0.490649
12	0x3e7eedbd	0.24895377
13	0xbe380c5a	-0.17973462
14	0xbe50370d	-0.203335
15	0x3e6c998c	0.23105448
16	0x3e31f7b9	0.17379655
17	0x3e55e707	0.20888911
18	0xbdcfc6d5	-0.10145346
19	0xbe968c4a	-0.29403907
20	0xbe11b6f4	-0.14229947
21	0xbec8ca85	-0.3921701
22	0xbedf1292	-0.43568856
23	0xbe8ba4fc	-0.2727431
24	0x3d96372b	0.07334741
25	0xbf0ea053	-0.55713385
26	0xbca4e1e3	-0.020127242
27	0x3dcc7004	0.09982303
28	0xbed09376	-0.40737504
29	0x3ef192d1	0.47182325
30	0xbe69e533	-0.22841339
31	0x3e40a353	0.18812303
32	0xbe4a4321	-0.1975217
33	0x3d30b94a	0.043145455
34	0xbe9893bf	-0.2980022
35	0x3d53997b	0.051660042
36	0x3ea44369	0.3208268
37	0xbca8257a	-0.020525683
38	0x3e1033d0	0.14082265
39	0x3e46b253	0.19403963
40	0x3ecbdac1	0.39815333
41	0x3e86be7c	0.26317203
42	0x3e7308e0	0.23733854
43	0x3e5aaed7	0.21355759
44	0xbd3725d4	-0.04471381
45	0xbe931128	-0.28724027
46	0x3bf85699	0.0075786826
47	0xbe366ca6	-0.17814884
48	0xbdb50077	-0.08837979
49	0xbd8523e2	-0.06500985
50	0xbebeffec	-0.37304628
51	0x3d153b79	0.03643367
52	0x3d0a303b	0.033737402
53	0xbea748cd	-0.3267273
54	0xbd8ba808	-0.06819159
55	0x3dbc539a	0.09195633
56	0x3e849f0f	0.25902602
57	0xbdfe88ce	-0.12428437
58	0x3e215b9c	0.15757602
59	0x3e19e38f	0.15028213
60	0xbe2788f3	-0.16360836
61	0x3bed748e	0.0072465604
62	0xbea71a80	-0.32637405
63	0x3c9e1dfa	0.019301403
64	0xbb1720d1	-0.0023060332
65	0xbe39be08	-0.18138897
66	0x3e4a95ef	0.19783758
67	0xbb71d4d9	-0.0036900549
68	0xbe381f0d	-0.17980595
69	0xbe050f8e	-0.12994215
70	0xbe79d580	-0.2439785
71	0xbda663ae	-0.08124481
72	0x3edb7bed	0.42867985
73	0xbec91fec	-0.39282167
74	0x3e9a23ec	0.3010553
75	0xbebd9eae	-0.37035125
76	0x3e964cfa	0.29355603
77	0xbdde7a31	-0.1086315
78	0x3ec61b0a	0.38692504
79	0x3e2c50be	0.16827676
80	0x3e8ff052	0.28113037
81	0x3e8d3c99	0.27585295
82	0xbedde4ab	-0.43338522
83	0xbd7b90e9	-0.061417494
84	0x3d086677	0.033300843
85	0xbd716dea	-0.058942713
86	0x3e597d8a	0.21239296
87	0x3c9737b6	0.018459182
88	0xbed14cf7	-0.40879032
89	0xbc9e68cc	-0.01933708
90	0x3da5f866	0.08104019
91	0xbeee4820	-0.46539402
92	0xbcff843d	-0.031190986
93	0xbdc6c8d9	-0.097062774
94	0xbe2a16ab	-0.1661021
95	0x3c42782c	0.0118694715
96	0xbe36a9e1	-0.17838241
97	0x3e37393c	0.17892927
98	0xbbac7878	-0.0052633844
99	0xbe0dd0cc	-0.13849181
100	0xbe0e477a	-0.13894454
101	0xbdcdb920	-0.100450754
102	0xbe0707d8	-0.13186586
103	0x3ee0267f	0.4377937
104	0x3e94f0db	0.29090008
105	0xbe0d532d	-0.1380126
106	0x3f24e2f5	0.6440881
107	0xbef77d15	-0.48337618
108	0x3e240f76	0.16021523
109	0x3ecf651c	0.40506828
110	0xbee38e92	-0.4444471
111	0x3e9bdac8	0.30440354
112	0xbf1d2365	-0.6138213
113	0xbeb239cb	-0.34809718
114	0x3e76cd08	0.2410165
115	0xbdd2b978	-0.102892816
116	0x3d4db8e9	0.050225172
117	0x3f1c06b6	0.6094774
118	0x3d45fee5	0.04833879
119	0x3d55a52e	0.05215948
120	0xbe8c2234	-0.27369845
121	0xbd43c123	-0.04779161
122	0xbe8acf85	-0.2711145
123	0x3ec3c5e5	0.3823692
124	0x3d68e0dc	0.056855068
125	0xbd20e456	-0.039280258
126	0xbdc802fe	-0.09766196
127	0xbcda2d31	-0.026632877
128	0xbe3a0185	-0.18164642
129	0xbd6a0836	-0.057136737
130	0x3dcc3e65	0.09972838
131	0xbe30c3e3	-0.17262225
132	0x3dfcc3a2	0.123420015
133	0x3d942931	0.07234419
134	0xbea2e35f	-0.31814095
135	0x3c4c6662	0.012475582
136	0x3e496d61	0.19670631
137	0xbdb17490	-0.08664811
138	0x3e782528	0.24232924
139	0xbe0e50cf	-0.13898014
140	0xbd8a5ef0	-0.06756389
141	0xbe568786	-0.20950136
142	0x3eb45a7f	0.35225293
143	0x3ea5087c	0.32233036
144	0xbeedbfff	-0.46435544
145	0x3e41be11	0.18920161
146	0x3d910ce0	0.07082534
147	0x3bd7124a	0.0065634595
148	0x3e9d56fa	0.3073042
149	0xbd103fbd	-0.035217036
150	0xbdf6f23f	-0.120579235
151	0xbca68eac	-0.020331703
152	0xbe9fbcdc	-0.31198776
153	0xbd117319	-0.035510156
154	0x3ea9b48b	0.33145556
155	0x3e7f1104	0.24908835
156	0x3ec54e75	0.3853642
157	0x3e560ab0	0.20902514
158	0xbe082224	-0.13294274
159	0xbf10dfb3	-0.5659134
160	0xbe91df81	-0.28490832
161	0xbd3fa869	-0.046791468
162	0xbd09f7ed	-0.033683706
163	0xbeb7dfad	-0.3591284
164	0xbda2e094	-0.07952991
165	0xbe6a0830	-0.22854686
166	0x3d9bd6a4	0.07609299
167	0x3eac85b9	0.33695772
168	0x3ded71c9	0.115939684
169	0x3ec5934a	0.38588935
170	0x3e34505c	0.1760878
171	0x3dfa37ec	0.122176975
172	0xbe3aa05b	-0.18225233
173	0xbe65d5cf	-0.22444843
174	0x3d25ef85	0.040511627
175	0x3dfa82a4	0.12231949
176	0xbe638eb9	-0.22222413
177	0x3eddc883	0.4331704
178	0x3b660d02	0.0035102968
179	0xbef01f5a	-0.4689892
180	0x3cd89d63	0.026442235
181	0xbeb133de	-0.34609884
182	0xbeb7a506	-0.3586809
183	0xbeb8b9c5	-0.3607923
184	0x3d50aa99	0.050943945
185	0xbf03e902	-0.51527417
186	0xbc2f838a	-0.010712514
187	0x3e63721b	0.22211497
188	0xbe52df82	-0.20593074
189	0xbda4e8f0	-0.08052242
190	0x3eaecce2	0.34140688
191	0x3deec8c9	0.116593905
192	0x3eca7660	0.39543438
193	0xbee9a336	-0.45632333
194	0x3dca36b4	0.09873715
195	0x3ee23d3f	0.44187352
196	0xbd9393ec	-0.07205948
197	0xbee50add	-0.4473485
198	0xbc4e6c37	-0.012599043
199	0xbf23324d	-0.6374863
200	0x3e826bef	0.25472972
201	0x3ea5583b	0.32293877
202	0xbe7a8cb1	-0.24467732
203	0xbee81928	-0.45331693
204	0xbe2a0747	-0.16604339
205	0xbf283f3a	-0.65721476
206	0x3e3108de	0.17288539
207	0x3d157751	0.036490742
208	0xbe6f9e05	-0.23400123
209	0xbcaa16c9	-0.020762818
210	0xbd8ba494	-0.068185
211	0xbe8545a7	-0.26029703
212	0x3e03f8f5	0.12887938
213	0x3eb60d3a	0.35556966
214	0xbdcd54bc	-0.100259274
215	0xbc3b866e	-0.011445625
216	0xbd6f327f	-0.058397766
217	0xbd868835	-0.06568948
218	0xbe364fd0	-0.17803884
219	0x3ea1ea23	0.31623945
220	0xbf14c327	-0.5811028
221	0xbeee23b7	-0.46511623
222	0xbd3a71fa	-0.045518853
223	0x3e95d000	0.29260254
224	0x3e4b18dd	0.19833703
225	0xbeb9a879	-0.36261347
226	0xbedbf458	-0.42959857
227	0x3c806057	0.015670938
228	0xbecc45f4	-0.3989712
229	0xbebb13b2	-0.36538464
230	0xbd44dd5d	-0.04806267
231	0x3e801265	0.25014034
232	0xbeae3577	-0.34025165
233	0xbe00938a	-0.12556282
234	0x3baf5a20	0.00535132
235	0xbc86a10d	-0.016434217
236	0x3e3442b1	0.17603566
237	0x3e6373ec	0.2221219
238	0xbe062cb5	-0.13102992
239	0xbd079be2	-0.033107646
240	0xbee3c653	-0.44487247
241	0xbed049ca	-0.40681297
242	0xbe2e6b08	-0.17033017
243	0x3dcefd92	0.101069584
244	0xbf0f4280	-0.55960846
245	0xbef130b2	-0.47107464
246	0x3e9edfc5	0.31030098
247	0xbe93c7aa	-0.2886327
248	0x3ea0f7e3	0.31439123
249	0xbe3ecc49	-0.18632616
250	0xbdfa8ab0	-0.12233484
251	0x3ca30084	0.019897707
252	0x3dcec892	0.100968495
253	0xbd7adb33	-0.0612442
254	0xbed4d185	-0.415661
255	0x3e16c2a9	0.14722694

weight f4 [16]
0	0x3ff8c518	1.9435148
1	0x3ff41103	1.9067692
2	0x3fe17267	1.7613038
3	0x3fdbd5ed	1.717466
4	0x3fcaf5b7	1.5856236
5	0x3fd65308	1.6744089
6	0x3fe899f7	1.8171986
7	0x3fdb72cb	1.7144407
8	0x402b36a1	2.6752093
9	0x4035b5b1	2.8392146
10	0x40318589	2.7737753
11	0x402ce42c	2.7014265
12	0x4032e716	2.7953544
13	0x401b89c2	2.430283
14	0x40340029	2.8125098
15	0x40206e64	2.5067377

bias f4 [16]
0	0xbda5cd57	-0.08095806
1	0xbe1c46d3	-0.15261392
2	0x3ee204e8	0.44144368
3	0x3da81137	0.082064085
4	0xbdaf33a2	-0.0855477
5	0xbd48540b	-0.048908275
6	0x3ce27e22	0.027648035
7	0xbd3dd793	-0.046348166
8	0x3d0825db	0.033239227
9	0xbdb16a8d	-0.08662901
10	0x3eb01e11	0.3439794
11	0x3dc024a3	0.09381988
12	0x3e11bea2	0.14232877
13	0x3e08a035	0.13342364
14	0x3dc2fc4d	0.09520779
15	0xbd10dd59	-0.035367344

running_mean f4 [16]
0	0xbfa2a6e8	-1.2707186
1	0x3cdf0b29	0.027227001
2	0xbf9c314e	-1.2202547
3	0xc013073b	-2.2973163
4	0x3e2ef7d4	0.17086726
5	0xbf537c69	-0.8261171
6	0xbf4b5972	-0.7943336
7	0xbf9cef6d	-1.2260567
8	0x3dbec9de	0.09315847
9	0xbe9497d8	-0.29022098
10	0xbf296c47	-0.66180843
11	0xbf7c4312	-0.9853984
12	0x3f56a00d	0.8383797
13	0xbf73db52	-0.9525653
14	0xbfc2b7aa	-1.52123
15	0xbe954292	-0.29152352

running_var f4 [16]
0	0x3f9ae272	1.2100356
1	0x4031bed0	2.7772713
2	0x404910fe	3.1416621
3	0x3feb0a2f	1.8362483
4	0x3f925772	1.1432936
5	0x40004b96	2.0046134
6	0x3f9f9162	1.2466242
7	0x3f6e6508	0.9312291
8	0x3fc9a61d	1.5753819
9	0x3ff29933	1.8953003
10	0x4012e620	2.2952957
11	0x3f8103f5	1.0079333
12	0x3fd169e2	1.6360438
13	0x3fc331b4	1.5249543
14	0x3fc5ea7c	1.5462184
15	0x3fab8916	1.340121

weight f4 [64, 96]
0	0x3da62297	0.08112066
1	0x3d633e64	0.055479422
2	0x3b30dbda	0.002698651
3	0x3d3380e6	0.0438241
4	0xbd95cd24	-0.07314518
5	0xbd8dd2be	-0.069249615
6	0xbc636947	-0.013880081
7	0x3db2d8d6	0.087327644
8	0x3c95ba28	0.018277243
9	0xbdb49d6e	-0.0881909
10	0xbcab298a	-0.02089383
11	0xbd727985	-0.05919792
12	0xbdbf80bf	-0.09350728
13	0x3b861c00	0.0040926933
14	0x3d71d42e	0.05904024
15	0xbcfca222	-0.03083903
16	0x3d466946	0.04844024
17	0xbdb89fcb	-0.09014853
18	0x3cadbc17	0.021207852
19	0xbda3054f	-0.07959997
20	0x3dbc0226	0.09180097
21	0xbc841be0	-0.016126573
22	0xbd3041e6	-0.043031596
23	0x3cc3556a	0.02384444
24	0xbdcd27d8	-0.10017365
25	0xbd2c55e5	-0.042074103
26	0x3d3f6a55	0.046732266
27	0x3d8931c2	0.06698944
28	0xbdbc7032	-0.09201087
29	0x3c218004	0.009857181
30	0xbdcc189e	-0.09965633
31	0x3d37c7d2	0.044868298
32	0xbc887725	-0.016658375
33	0x3b4815a2	0.0030530472
34	0x3daeb42c	0.08530459
35	0xbd2d6e27	-0.042341378
36	0x3b304d56	0.0026901565
37	0xbdad8d74	-0.08474246
38	0x3d92c67d	0.07166765
39	0xbc747d66	-0.014922475
40	0xbde71cab	-0.11284765
41	0xbd4fe753	-0.050757717
42	0x3b27738e	0.0025551054
43	0x3bbdb63b	0.005789546
44	0xbc08cb22	-0.008349212
45	0x3c9c45ec	0.01907631
46	0x3d7f5819	0.062339876
47	0xbc2f5bd4	-0.010703046
48	0x3c5f280e	0.01362039
49	0xbd8ad56a	-0.06778987
50	0x3a2702d3	0.0006370965
51	0xbd91bc48	-0.0711599
52	0x3d797b45	0.060908575
53	0xbd823a13	-0.06358733
54	0xbd8aa390	-0.06769478
55	0x3da5699a	0.080767825
56	0x3dc4d7ca	0.09611471
57	0xbd76eb0d	-0.060282756
58	0xbd15e682	-0.036596783
59	0xbd9d07bd	-0.076674916
60	0xbda3372b	-0.07969507
61	0x3d0eee55	0.03489526
62	0xbd3430c3	-0.043991815
63	0xbd078e7c	-0.033094868
64	0xbdbc3a09	-0.09190757
65	0x3ccb1b49	0.024793284
66	0xbe01f462	-0.12690881
67	0x3d8760bb	0.06610247
68	0xbd9714ae	-0.07376991
69	0xbca73add	-0.02041381
70	0x3d5b9420	0.05360806
71	0xbd83c8e6	-0.06434803
72	0x3d802d42	0.06258632
73	0xbd3d04ff	-0.046147343
74	0xbd417dd0	-0.047239125
75	0xbd967b84	-0.073477775
76	0x3d8154d1	0.063150056
77	0x3d4cabf9	0.049968693
78	0xbddbdae8	-0.107351124
79	0x3d2226c0	0.039587736
80	0x3dccba38	0.09996456
81	0x3d370bcd	0.04468899
82	0xbd69aab0	-0.057047546
83	0xbc94f3f9	-0.018182741
84	0x3d8edf2d	0.06976161
85	0xbc8c92a6	-0.017159771
86	0xbdcf0a10	-0.10109341
87	0x3d47c0ce	0.048767857
88	0xbda07f41	-0.07836772
89	0xb90c96af	-0.00013407574
90	0xbd72579d	-0.059165586
91	0xbbfd0e6a	-0.0077226656
92	0xbd8d1382	-0.068884864
93	0x3d0f113a	0.034928538
94	0x3d8ce4fd	0.068796135
95	0xbcce121c	-0.02515512
96	0xbd4f7ca4	-0.050655976
97	0x3d0169b5	0.03159495
98	0x3d44e787	0.048072364
99	0xbe1c5ea8	-0.15270483
100	0xbe046438	-0.12928855
101	0xbe116df3	-0.14202099
102	0x3e1d4f57	0.15362297
103	0xbea3b9f7	-0.31977817
104	0xbecf7e15	-0.4052588
105	0xbdbff622	-0.09373118
106	0x3db2dcf1	0.087335475
107	0x3d58b042	0.052902468
108	0x3dc75108	0.09732252
109	0xbcc76732	-0.0243412
110	0x3ec200a8	0.37891126
111	0x3eaa8959	0.33307913
112	0xbd8d8966	-0.06910972
113	0xbe312f18	-0.17303121
114	0xbc564236	-0.013077309
115	0x3e469519	0.19392814
116	0x3e009eea	0.12560621
117	0xbda96226	-0.082706735
118	0xbdc9815e	-0.09839128
119	0x3da2ab6d	0.07942853
120	0x3dbeca82	0.09315969
121	0x3dbc3f17	0.09191721
122	0x3d41af1a	0.04728613
123	0x3f00de68	0.50339365
124	0x3d3800f9	0.044922803
125	0xbd9c7389	-0.07639224
126	0x3d5a624e	0.053316407
127	0x3e322094	0.1739524
128	0x3d4f3c8f	0.050594863
129	0xbe581740	-0.21102619
130	0x3e55d621	0.20882465
131	0x3e180a28	0.14847624
132	0x3ddffac9	0.10936505
133	0x3d8ce8b2	0.068803206
134	0xbec828a8	-0.39093518
135	0xbe4a6e7c	-0.19768709
136	0x3e06fc8f	0.13182281
137	0x3e8737fa	0.26409894
138	0x3e644a9d	0.22294088
139	0xbd4272e8	-0.047472864
140	0xbd69bdea	-0.05706588
141	0x3db63a85	0.088978805
142	0xbdc68cac	-0.096948
143	0x3e26ce6b	0.1628968
144	0x3e1d90b5	0.15387233
145	0x3e04c891	0.12967135
146	0x3e75cb21	0.24003269
147	0xbe59ec24	-0.21281487
148	0xbe07c721	-0.13259555
149	0x3d61ee5c	0.055158958
150	0xbd6c244b	-0.0576518
151	0x3dfab4fd	0.12241552
152	0xbd95ba72	-0.07310952
153	0xbea10156	-0.31446332
154	0xbcae079d	-0.021243865
155	0x3dac3b43	0.08409741
156	0xbe30fe8b	-0.172846
157	0x3e44551f	0.19173096
158	0xbea4cd54	-0.32187903
159	0xbd8cd4c9	-0.06876523
160	0x3ed5fe94	0.4179579
161	0xba57bdae	-0.00082298636
162	0xbe5312ce	-0.20612642
163	0x3e37f68a	0.17965141
164	0x3e812386	0.25222415
165	0xbdc3a9cd	-0.09553871
166	0x3e29dab6	0.16587338
167	0xbdac9cce	-0.084283456
168	0xbd6abdb3	-0.057309818
169	0x3e15d5bc	0.14632314
170	0x3e556304	0.20838553
171	0xbda0fc48	-0.07860619
172	0x3e9ab0dd	0.3021306
173	0xbe5c3015	-0.21502717
174	0x3d076f72	0.033065267
175	0xbe64cf5e	-0.2234473
176	0x3db7632a	0.08954461
177	0x3d8a5868	0.067551434
178	0xbca1d124	-0.019753046
179	0xbe72d8d6	-0.23715529
180	0xbde5f2c7	-0.11227947
181	0xbee5f317	-0.44912025
182	0xbc949418	-0.018137023
183	0xbe9f2d2c	-0.3108915
184	0x3ed57e68	0.41698003
185	0x3ec004c1	0.37503627
186	0x3e0e8cff	0.13920973
187	0xbc23096b	-0.009950976
188	0xbde0acd9	-0.10970468
189	0x3e24783a	0.16061488
190	0x3d952c96	0.07283895
191	0xbdceb419	-0.10092945
192	0x3dc0f93e	0.09422539
193	0xbd285f6f	-0.041106638
194	0xbdbba5c4	-0.09162477
195	0xbbd027be	-0.006352394
196	0xbd974d0b	-0.07387742
197	0xb9853923	-0.00025410307
198	0xbdaa1ea7	-0.08306628
199	0x3d0b779b	0.03404961
200	0x3c081b86	0.008307343
201	0x3d847001	0.064666755
202	0xbd59b727	-0.053153183
203	0x3d03d763	0.03218783
204	0x3cc5dcd7	0.024153156
205	0xbd9778ef	-0.07396113
206	0xbd7de23e	-0.06198334
207	0xbd0a0fa6	-0.03370633
208	0x3db89964	0.09013632
209	0x3d44c05c	0.04803501
210	0x3d81402d	0.06311069
211	0xbd0cd1c2	-0.03437973
212	0x3c0527ac	0.008127134
213	0xbd8bf47a	-0.068337396
214	0xbc7623df	-0.015023201
215	0xbce5b40b	-0.028039953
216	0xbd4408b1	-0.04785985
217	0x3c7704cc	0.015076827
218	0x3c8989fc	0.016789429
219	0xbd1a7563	-0.037709605
220	0xbc1b1867	-0.009466267
221	0x3d61f267	0.055162814
222	0x3d89fe46	0.06737952
223	0xbdd5c49d	-0.10437892
224	0x3d1476f7	0.036246266
225	0xbd6d1b8e	-0.057887606
226	0x3dbec89d	0.09315608
227	0xbcd0d430	-0.025491804
228	0xbd6f23b3	-0.058383655
229	0xbdaadc92	-0.08342852
230	0xbcd689bb	-0.026188722
231	0x3d6ff7b0	0.058585823
232	0xbd329104	-0.04359533
233	0xbd9bcd12	-0.076074734
234	0xbd84bb09	-0.064809866
235	0x3d00b5f3	0.03142352
236	0xbd761a1f	-0.060083505
237	0xbdd4fb9a	-0.10399552
238	0x3d8e756e	0.06955992
239	0xbd364bf3	-0.044506025
240	0xbda3eec1	-0.08004523
241	0x3d86c93e	0.06581353
242	0x3dbb12f5	0.09134475
243	0x3da21115	0.079134144
244	0xbd67ba93	-0.056574415
245	0xbd9a9523	-0.07547977
246	0xbd9d94c8	-0.076943934
247	0xbda28df3	-0.07937231
248	0xbd4634d9	-0.048390243
249	0x3bc824b0	0.006107889
250	0xbd8ba1a6	-0.06817941
251	0xbcc1dfa7	-0.023666216
252	0xbd1949be	-0.03742384
253	0xbc904b57	-0.01761405
254	0x3d27b565	0.040944476
255	0xbcb50707	-0.022098077

bias f4 [64]
0	0xbda561d4	-0.080753
1	0x3e0e7249	0.13910784
2	0x3d445838	0.047935694
3	0xba897fc7	-0.0010490351
4	0x3cad7c56	0.021177452
5	0x3de1fe71	0.11034859
6	0x3e1bcff3	0.15216045
7	0x3d8f40bb	0.06994768
8	0x3d0993ec	0.033588335
9	0x3c89050c	0.01672604
10	0xb9bf0ca2	-0.0003643977
11	0xbd37d01d	-0.044876207
12	0x3d8d209a	0.06890984
13	0xbc731774	-0.014837135
14	0x3d45fa4c	0.048334405
15	0xbc2816d0	-0.010259345
16	0x3d285587	0.04109719
17	0x3c6b57e2	0.014364215
18	0x3d610eb0	0.054945648
19	0x3d13f726	0.03612437
20	0xbd797ca1	-0.06090987
21	0xbdb8f2f0	-0.09030712
22	0x3d6f5fa2	0.058440812
23	0x3d0cad76	0.034345113
24	0xbdd00846	-0.10157828
25	0x3d6e9f93	0.05825765
26	0xbd477e72	-0.048704572
27	0x3d7c63ac	0.061618492
28	0x3d869eae	0.065732345
29	0x3c172ffd	0.00922775
30	0xbc935a4a	-0.01798739
31	0x3d562271	0.05227894
32	0xbdaaa160	-0.08331561
33	0x3d5db074	0.054123357
34	0x3e598a3f	0.21244143
35	0x3e00c47d	0.12574954
36	0xbbbfb46b	-0.005850365
37	0x3db2365c	0.087017745
38	0x3d248760	0.040168166
39	0x3dbf024e	0.093266115
40	0x3de6cd94	0.1126968
41	0x3d1b9f76	0.03799387
42	0x3d9bf1f7	0.076145105
43	0xbcb94e50	-0.02262035
44	0xbd998d77	-0.074976854
45	0xbd24ff72	-0.040282674
46	0x3db816f8	0.08988756
47	0x3dfcea3e	0.12349366
48	0xbcd40d22	-0.025885168
49	0x3d476d1b	0.048688035
50	0xbd295219	-0.04133806
51	0xbd97c99b	-0.074115
52	0x3dfa7f8d	0.1223136
53	0xbdc2d61b	-0.095134936
54	0xbd06e284	-0.032930866
55	0xbddaac81	-0.10677434
56	0xbca81602	-0.020518307
57	0x3c26289a	0.010141516
58	0xbda12d2b	-0.07869943
59	0xbcca2ebd	-0.02468049
60	0x3ce3f234	0.027825452
61	0x3db6d7b9	0.089278646
62	0x3cd04b3f	0.025426505
63	0x3cf74e6d	0.030188764

weight f4 [1, 64]
0	0xbe228f64	-0.15875012
1	0x3f8ae287	1.0850381
2	0xbdfc9d5d	-0.12334702
3	0xbe56b840	-0.20968723
4	0x3e701471	0.23445298
5	0xbf876cb4	-1.0580049
6	0x3f26c922	0.65150654
7	0x3f1aad90	0.60421085
8	0xbf2e7814	-0.68151975
9	0xbdaf2f2d	-0.0855392
10	0x3da26c5b	0.079308234
11	0xbd14f992	-0.03637082
12	0x3def4cd1	0.116845734
13	0xbd4d6b5d	-0.050151218
14	0xbf325b9e	-0.69671047
15	0xbd98129f	-0.07425427
16	0x3e7d977d	0.2476482
17	0xbf224776	-0.6339029
18	0xbecbc2f3	-0.39797172
19	0x3f6d8103	0.9277498
20	0xbcf94d82	-0.030432466
21	0x3d88cd23	0.06679752
22	0xbde17fbc	-0.110106915
23	0x3f164758	0.5870261
24	0x3d9a9c84	0.07549384
25	0xbf0c6e42	-0.5485574
26	0x3e9d8992	0.3076902
27	0xbb047bd1	-0.0020215402
28	0xbf5b6fcd	-0.8571747
29	0x3d865f42	0.06561138
30	0xbf0bf5e3	-0.5467207
31	0xbe829deb	-0.25511107
32	0xbe21ec08	-0.15812695
33	0x3e65d540	0.2244463
34	0x3f619c25	0.8812888
35	0x3f2c52af	0.67313665
36	0x3f481833	0.78161925
37	0xbf322aa2	-0.695963
38	0xbe6ba8b5	-0.23013575
39	0x3eca50c4	0.39514744
40	0x3f9ed8b6	1.2409885
41	0xbf40626e	-0.7515019
42	0xbecba014	-0.39770567
43	0xbe36f462	-0.17866662
44	0xbdebde9e	-0.1151707
45	0x3e9c1561	0.3048506
46	0xbf208d6c	-0.6271579
47	0x3f1c85ff	0.6114196
48	0xbea6aec4	-0.3255521
49	0x3efd3313	0.4945303
50	0xbee1a5e0	-0.44071865
51	0xbd9eab1d	-0.07747481
52	0x3f86b476	1.0523822
53	0xbf678c66	-0.90448606
54	0xbdab3986	-0.08360581
55	0xbe1336d8	-0.1437639
56	0xbecac497	-0.3960311
57	0x3ea5f9a9	0.32417038
58	0x3e514243	0.20435433
59	0xbef3d78c	-0.47625387
60	0x3ec2b3a6	0.38027686
61	0x3e19c3b2	0.15016058
62	0xbe1ad78d	-0.15121289
63	0xbf344582	-0.7041856

weight f4 [64, 96]
0	0x3d1cd040	0.03828454
1	0x3de098e4	0.109666616
2	0x3ce7def9	0.028304564
3	0xbd722eb4	-0.05912657
4	0x3c0507a8	0.008119501
5	0xbd88c2c0	-0.066777706
6	0x3dec5474	0.11539546
7	0xbcaf7696	-0.02141885
8	0x3dfff798	0.12498397
9	0x3e22eb37	0.1591004
10	0x3dbcf281	0.092259414
11	0xbd1d44ed	-0.03839581
12	0x3c61350c	0.0137455575
13	0xbcd8d01a	-0.026466418
14	0xbcd40001	-0.025878908
15	0xbd6f3692	-0.05840165
16	0xbdaba784	-0.083815604
17	0xbda75912	-0.08171286
18	0x3cb0bb16	0.021573585
19	0x3df1895a	0.11793776
20	0xbdda996b	-0.106737934
21	0x3d06771b	0.03282843
22	0x3cd64c4e	0.026159432
23	0xbd912004	-0.070861846
24	0xbdc79396	-0.09744947
25	0xbb8d346f	-0.004309229
26	0xbd8e432a	-0.06946404
27	0x3cf154ba	0.029459346
28	0x3dea7a3d	0.11449096
29	0xbcb853df	-0.02250093
30	0xbdd528a8	-0.10408145
31	0x3e147a1c	0.14499706
32	0xbd7bc468	-0.061466604
33	0xbdaca84e	-0.08430539
34	0x3c8ab66e	0.016932692
35	0x3d17906f	0.037002977
36	0xbe062144	-0.13098627
37	0xbdec8c82	-0.11550237
38	0x3d2e9895	0.042625982
39	0x3de40098	0.11132926
40	0x3ddc6369	0.107611485
41	0x3d20db87	0.039271858
42	0x3db45f9b	0.08807298
43	0x3db807a7	0.089858346
44	0x3d9cb00a	0.07650764
45	0x3e0b7374	0.1361826
46	0x3d913b42	0.07091381
47	0xbd58add9	-0.05290017
48	0xbd0151de	-0.031572215
49	0x3d41c220	0.047304273
50	0x3db0e7c4	0.08637956
51	0x3e0aa130	0.1353805
52	0xbd2deb44	-0.042460695
53	0x3daa22cf	0.083074205
54	0x3c1fa0a5	0.0097428905
55	0x3cc771ce	0.024346258
56	0x3df22e05	0.11825184
57	0x3cf0a952	0.029377613
58	0x3e203deb	0.1564862
59	0x3c7d2a8e	0.01545204
60	0xbda314d0	-0.07962954
61	0xbd4e06a4	-0.0502993
62	0x3d468119	0.04846296
63	0xbcc4df75	-0.024032334
64	0xbbb0cede	-0.0053957542
65	0xbd0de247	-0.034639623
66	0xbc3643a5	-0.011124526
67	0x3d22c446	0.039737962
68	0x3cfe1212	0.031014476
69	0x3d6f4189	0.05841211
70	0xbd7d2b9d	-0.06180917
71	0xbd677a72	-0.056513257
72	0x3d855794	0.06510845
73	0x3caf14e4	0.021372266
74	0x3d5a9955	0.053368885
75	0xbddac95c	-0.106829375
76	0xbda8df91	-0.08245767
77	0xbd9f622d	-0.077823974
78	0xbdeda0a5	-0.11602906
79	0xbda0144a	-0.0781637
80	0x3c4a8c45	0.012362544
81	0xbc8feacf	-0.01756802
82	0xbdb9377b	-0.09043785
83	0xbd7e4270	-0.06207508
84	0x3d980cf9	0.07424349
85	0xbdb27043	-0.087128185
86	0x3d36aadd	0.04459654
87	0x3d49b477	0.04924437
88	0xbd6266cd	-0.05527382
89	0x3d13b960	0.03606546
90	0x3d705ab5	0.058680255
91	0xbda59ee7	-0.08086949
92	0x3d02f844	0.031975046
93	0xbce1d370	-0.027566642
94	0xbd2ca8aa	-0.042153038
95	0xbda8c224	-0.082401544
96	0x3d4948b5	0.049141604
97	0x3cc835ac	0.024439655
98	0x3e286e0a	0.16448227
99	0xbb67208c	-0.0035267202
100	0x3db321c2	0.08746673
101	0xbe0224ea	-0.12709394
102	0xbd30e2f2	-0.043185182
103	0xbd0a889e	-0.033821695
104	0xbc5284d3	-0.012849051
105	0xbe05e51d	-0.13075681
106	0x3d3ef67d	0.04662179
107	0xbdf8fab6	-0.12157194
108	0x3dec509d	0.11538813
109	0xbe18637f	-0.14881705
110	0xbbaea2b9	-0.0053294566
111	0xbdcf15fd	-0.10111616
112	0xbd376bf7	-0.044780698
113	0xbd8e9cf6	-0.06963532
114	0xbca48309	-0.020082014
115	0x3cdf3d25	0.027250836
116	0x3e848d90	0.25889254
117	0xbd52a24a	-0.051424302
118	0xbdb10a21	-0.0864451
119	0xbd23c332	-0.039981075
120	0xbc314441	-0.010819496
121	0xbd4867d0	-0.04892713
122	0x3e10c4ba	0.14137545
123	0x3d884de6	0.06655483
124	0xbd9d2d1e	-0.07674621
125	0x3a4d7d9d	0.0007838847
126	0xbd92a9b2	-0.07161273
127	0x3d9fe253	0.0780684
128	0x3c8b4470	0.017000407
129	0xbbc2a5a1	-0.0059401547
130	0x3c9faf6a	0.019492824
131	0xbd6e327f	-0.058153626
132	0x3d91741f	0.071022265
133	0xbcdbde1e	-0.026839312
134	0x3e0c0701	0.13674547
135	0x3bf82858	0.0075731687
136	0x3c76d4fd	0.015065429
137	0x3d291a01	0.041284565
138	0x3bcdcdbb	0.0062806285
139	0xbdb33941	-0.08751155
140	0xbd84a2cf	-0.06476366
141	0x3db93bc6	0.09044604
142	0xbcd8311f	-0.02639061
143	0x3debed8d	0.115199186
144	0xbd924a29	-0.07143051
145	0xbd53957b	-0.051656228
146	0x3c864890	0.016392022
147	0xbde737da	-0.1128995
148	0x3d0ee91b	0.034890275
149	0x3c5b077d	0.013368485
150	0xbdb8cb6e	-0.09023176
151	0x3e5250ae	0.2053859
152	0x3d819e80	0.063290596
153	0xbe086050	-0.1331799
154	0x3d1c39d5	0.03814109
155	0xbd9c0e74	-0.07619944
156	0x3da29292	0.07938112
157	0x398e6ac4	0.00027163897
158	0x3e1cbb4b	0.15305822
159	0x3da71a18	0.08159274
160	0x3d929580	0.07157421
161	0xbbe717f9	-0.0070524183
162	0x3d01847d	0.03162049
163	0x3a6abcfe	0.00089545536
164	0x3d8da7db	0.069167815
165	0x3db7178f	0.0894004
166	0x3d0c0310	0.034182608
167	0x3dbe20a0	0.092835665
168	0xbd955778	-0.07292074
169	0xbd8d4417	-0.06897753
170	0x3cd4ff45	0.026000628
171	0x3d72c507	0.05926993
172	0x3bbe06bc	0.0057991426
173	0x3da3f1d1	0.08005107
174	0x3d3ade9b	0.04562245
175	0x3d8d4920	0.06898713
176	0x3d26d246	0.040727876
177	0xbd9e2a0f	-0.07722866
178	0x3e6bb416	0.23017916
179	0x3d8822b6	0.066472456
180	0xbe12adbf	-0.14324091
181	0x3a97840b	0.0011559738
182	0xbc833b48	-0.016019478
183	0xbd2e4975	-0.042550523
184	0x3d4493a9	0.047992382
185	0xbdb98a3c	-0.09059569
186	0x3cdf77c9	0.027278798
187	0x3e05a4f2	0.13051203
188	0x3e25b49f	0.16182183
189	0x3d59bdfd	0.053159703
190	0x3d80c1ac	0.0628694
191	0xbd8e97e1	-0.06962562
192	0xbcc19a0f	-0.023633031
193	0xbe109d18	-0.14122427
194	0x3d1084de	0.035282962
195	0x3e563be7	0.20921288
196	0xbe34daa2	-0.17661527
197	0x3cbb6849	0.022876875
198	0x3e9717a6	0.2951023
199	0xbe114ba9	-0.14189018
200	0x3dce1969	0.1006344
201	0x3d1ca17a	0.038239934
202	0xbdc131dc	-0.09433338
203	0x3de11715	0.10990731
204	0xbe8196cb	-0.25310358
205	0xbd2d4805	-0.04230501
206	0xbda92c2a	-0.08260377
207	0x3dbe775b	0.09300109
208	0x3e0b9064	0.136293
209	0x3e13daca	0.1443893
210	0x3cda6c20	0.026662886
211	0x3c79f21f	0.01525548
212	0x3f0d1089	0.55103356
213	0x3ded3d27	0.115839295
214	0x3db149e0	0.08656669
215	0xbe449af3	-0.19199733
216	0xbd3b78b8	-0.045769423
217	0x3d9310e3	0.07180955
218	0x3dc8dbb4	0.0980753
219	0x3e3315a1	0.1748872
220	0xbd507f46	-0.050902627
221	0xbd15249f	-0.036411878
222	0x3cfeb91e	0.03109413
223	0x3d0ac3e6	0.03387823
224	0x3eba6f3b	0.36412987
225	0x3e8af6a1	0.27141288
226	0x3d83601e	0.06414817
227	0x3cb88206	0.022522938
228	0x3e1c312e	0.15253136
229	0xbe92db75	-0.28683057
230	0xbd35a685	-0.04434826
231	0x3cfe97df	0.031078277
232	0xbcd350eb	-0.02579542
233	0x3e4126a0	0.1886239
234	0x3bb4bf86	0.0055159954
235	0xbe2407ae	-0.16018555
236	0x3d35e826	0.044410847
237	0x3d4bbd62	0.049741156
238	0x3e2ffa7b	0.17185394
239	0xbd8fdd24	-0.07024601
240	0xbdc9abe5	-0.098472394
241	0x3e33b33b	0.1754884
242	0x3e9b7ce6	0.30368727
243	0x3e00d35f	0.12580632
244	0x3e1741d5	0.14771207
245	0x3d8d04df	0.06885695
246	0xbe01864c	-0.12648886
247	0x3dace75a	0.08442564
248	0x3d3ee879	0.046608422
249	0x3d45de5e	0.04830777
250	0x3e949ac5	0.2902433
251	0xbde90143	-0.11377194
252	0xbdae0965	-0.084978856
253	0x3d5a934e	0.053363137
254	0x3dc66006	0.09686284
255	0x3e5b2695	0.21401437

bias f4 [64]
0	0xbc74ca50	-0.014940813
1	0x3ca52c23	0.020162648
2	0xbd7c820e	-0.061647467
3	0x3cad3d87	0.021147503
4	0xbd35ca4e	-0.044382386
5	0x3b421381	0.0029613676
6	0x3d7246ec	0.059149668
7	0xbca76ed9	-0.020438598
8	0xbdf07cf1	-0.11742581
9	0xbdd32006	-0.10308842
10	0x3dd4db17	0.103933506
11	0x3b85f131	0.00408759
12	0xbda30b8d	-0.079611875
13	0x3dd21528	0.102579415
14	0x3da0fa6f	0.078602664
15	0xbda38810	-0.07984936
16	0xbbe3854f	-0.006943382
17	0xbdaa05fe	-0.08301924
18	0x3d6399c0	0.05556655
19	0xbd81f499	-0.063454814
20	0xbdfb7271	-0.12277687
21	0xbb70045c	-0.0036623692
22	0xbccd68dc	-0.025074415
23	0xbd2f6af2	-0.0428266
24	0xbdcca6b6	-0.09992735
25	0xbd13000d	-0.03588872
26	0xbdab5843	-0.08366444
27	0x3be7f65e	0.00707893
28	0x3c0e3eab	0.008681933
29	0x3d57c094	0.05267389
30	0x3d5786ba	0.05261872
31	0x3d462555	0.048375446
32	0x3d8f43f7	0.06995385
33	0xbd8a59e7	-0.06755429
34	0x3da88e44	0.0823026
35	0xbdb3a08d	-0.08770857
36	0x3abfc1a9	0.0014629859
37	0xbd756c8b	-0.059917968
38	0xbda7ce01	-0.08193589
39	0xbdfaf5b2	-0.12253894
40	0xbd5653c9	-0.052325998
41	0xbda2f329	-0.07956535
42	0x3dfdd2d0	0.12393725
43	0xbc81ee3e	-0.015860673
44	0xbc12e0a0	-0.008964688
45	0x3ade6a00	0.0016968846
46	0x3b1ac52a	0.0023616054
47	0xbccb6f99	-0.024833487
48	0x3dd75242	0.10513736
49	0xbdb21332	-0.086950675
50	0x3d1011b0	0.035173118
51	0xbcb7b86a	-0.022426803
52	0x3e2399f0	0.15976691
53	0xbbd9ae59	-0.0066430983
54	0xbd0a04e0	-0.033696055
55	0x3d8d63ec	0.06903824
56	0x3defd0d2	0.11709751
57	0xbc8802cd	-0.016602898
58	0xbd323e31	-0.04351634
59	0x3cf1ab06	0.029500496
60	0xbb82ad6a	-0.0039879577
61	0x3c5bee88	0.0134235695
62	0xbdbba889	-0.09163005
63	0xbe132392	-0.14369038
